Model/Train_1/colorectal_segmentation_model.pth (torch, 603784 bytes, 7 tensors)

encoder.0.weight f4 [64, 3, 3, 3]
000000 70 76 ee bd 63 c6 ff 3d b2 38 8f 3d 6f 97 af bd
       -0.11643684 0.12489011 0.06993236 -0.085738055
000010 5a fb b9 3d 84 d3 82 3c ed 87 ef bd 26 64 14 3d
       0.09081145 0.01597 -0.11695848 0.03622832
000020 65 c9 d8 3d 24 28 90 bd 39 02 20 3e 53 18 10 3e
       0.10585288 -0.07038906 0.15625848 0.14071779
000030 a3 67 6a 3d 70 c2 99 bd 1d e4 42 be 21 03 15 3e
       0.057227742 -0.07507789 -0.19032331 0.14551975
000040 46 da ab 3b 28 f7 c4 bd d7 87 aa 3d 57 52 10 3d
       0.005244526 -0.09617454 0.08326691 0.035234775
000050 4e e5 fb bb 71 8b 9e 3d 25 b4 71 be 00 ef fe 3d
       -0.0076872474 0.0774144 -0.23603876 0.124479294
000060 f8 a5 1c 3e d4 c4 05 be 5f 2b 98 be b5 ba 79 3d
       0.15297687 -0.13063365 -0.2972059 0.060969073
000070 88 61 c9 bd b0 a1 fa bd 2b 8d c7 bc f8 0d 1a 3e
       -0.09833056 -0.12237871 -0.024359306 0.15044391
000080 0c 17 ca 3c d7 13 fa bd 8e 6e 83 bd ae 07 00 bc
       0.024669193 -0.122108154 -0.06417571 -0.007814331
000090 16 18 c1 bd 1b 59 2f bc 76 3c 60 3d 80 49 60 3d
       -0.09428422 -0.010702397 0.05474516 0.054757595
0000a0 6e 72 19 be 1d 7f 5a bc b3 2f 8a 3b 10 a6 ef 3d
       -0.14985058 -0.01333597 0.004217112 0.11701596
0000b0 a7 36 7e bc 5b e8 c4 3d 63 7e 0c 3d 25 be b0 bd
       -0.01551596 0.09614631 0.03430022 -0.08630017
0000c0 b9 54 18 3e a6 75 09 3d 74 01 11 be 4a e1 57 3d
       0.14876069 0.033559464 -0.1416071 0.052705087
0000d0 77 05 3a bd e2 0f 1b be 41 23 55 bd 93 67 15 be
       -0.045415368 -0.15142778 -0.052035574 -0.14590292
0000e0 76 d4 b2 3c db fa 38 3c 75 af db bd e9 d9 57 be
       0.021829825 0.011290277 -0.10726825 -0.2107922
0000f0 1d 13 de bc 9a 6c ae bd 94 3c 4e 3d d0 a5 94 3c
       -0.027108723 -0.08516808 0.05035074 0.018145472
000100 81 fc 1e 3c db b6 9c 3c 6a 96 07 bd f8 fe 32 bc
       0.009703756 0.019130161 -0.03310243 -0.010925047
000110 2d 1c 29 bd 33 7a 64 bc 11 79 1e be e2 5b 16 3d
       -0.041286636 -0.01394515 -0.1547587 0.03670872
000120 69 e4 86 3d 80 21 3e 3e 23 af 02 be d6 82 35 3e
       0.065865345 0.18567467 -0.12762122 0.17725691
000130 c3 5e aa bd 6b 9c 9b bd 31 93 42 3e 6b f3 94 3d
       -0.083188556 -0.07598194 0.19001462 0.07272991
000140 61 d3 b9 bd 4e 39 8e bd 89 99 9c 3d 35 5d 91 3d
       -0.090735205 -0.06944524 0.07646472 0.07097856
000150 77 15 aa bb ff 68 18 bd f0 50 ae 3c cf db 85 bd
       -0.005190547 -0.037209507 0.021278828 -0.06536066
000160 04 a6 8c 3d ce 3f 17 be ba aa cd 3c 62 cf 35 bd
       0.068676025 -0.14770433 0.025105823 -0.04438723
000170 a3 9b 9a 3d c3 21 92 bc 32 15 02 3e 65 c5 9f bc
       0.075492166 -0.017838364 0.12703398 -0.019503305
000180 95 cd 09 be 90 03 86 bd df 48 1d be 02 3a eb bd
       -0.1345733 -0.06543648 -0.1535983 -0.114856735
000190 d8 ba f1 bd ff 7b 3b 3e 2d 6e 13 be 74 a9 ba bd
       -0.11803216 0.1830902 -0.14397497 -0.09114352
0001a0 30 f1 14 be 8a 14 e4 bc 4c 16 2b bd 1a 8a db bd
       -0.1454513 -0.027841825 -0.04176931 -0.107197
0001b0 1f fb 34 3e 98 ac 0d 3e ac a4 41 be 27 e3 53 bd
       0.1767392 0.1383537 -0.18910474 -0.0517303
0001c0 df 1c d2 3d 66 dd 3e be 54 51 fe 3d b6 0f b9 bd
       0.10259413 -0.18639144 0.12417856 -0.090362
0001d0 be 1e b5 3c af c6 31 be 3e 64 26 be 0a 0e 76 be
       0.022109386 -0.17360948 -0.16249177 -0.24028793
0001e0 b4 f2 f8 3d 8c ee 15 bd e7 00 c5 bc 5b 75 3f be
       0.12155667 -0.03660445 -0.024048282 -0.18697111
0001f0 d6 0e b3 bd 0b 4b ff bb c4 5e 31 3e 00 a3 cd bc
       -0.08743064 -0.0077909282 0.17321306 -0.025102139
000200 3c 46 ae 3c 77 7f 19 3e 04 6e e7 bd f9 04 e5 3d
       0.021273725 0.1499003 -0.11300281 0.11182589
000210 73 5b b9 bd f2 ed ad 3d c0 39 02 be 0e f3 04 3e
       -0.09050646 0.0849265 -0.12717342 0.12983343
000220 1c 71 de bd fd 54 44 3d 3e ad 1e 3e 2e 8f 2e 3e
       -0.10861418 0.047932614 0.15495774 0.17046806
000230 40 db e7 bd bf d7 2c 3e 19 2f 39 3e b4 b9 36 be
       -0.113211155 0.16879176 0.18084373 -0.17844278
000240 49 af 3a be 80 37 c5 bd 2e d3 46 3b a1 f7 3e 3d
       -0.18230928 -0.096297264 0.0030338275 0.046622876
000250 a8 d7 76 3d 0a c5 2b be 5a c9 4f be 2e 8c d8 bd
       0.06026426 -0.16774383 -0.20291653 -0.10573612
000260 a5 92 70 3d c9 50 a3 bc 8d c6 b1 bd c6 8c e9 bc
       0.0587336 -0.019935982 -0.08680449 -0.028509509
000270 99 1d 42 3c 98 14 d0 3d 41 11 10 be 39 16 3c be
       0.011847877 0.10160178 -0.14069082 -0.18367852
000280 4a f2 31 3e 45 64 5f bd bc 20 f9 bd 90 72 c4 bd
       0.17377582 -0.054538984 -0.12164447 -0.095921636
000290 b5 ca 05 bd bc 4d d0 3c 5b 82 19 3d b0 ae b9 3d
       -0.03266402 0.025427692 0.037477832 0.09066522
0002a0 0f 9c 53 bd cf 22 f8 bc c6 76 32 be c7 42 8f be
       -0.0516625 -0.030290036 -0.17428121 -0.27980635
0002b0 36 87 1c be 44 ef 8e be cf db 85 bd 82 9d 8c be
       -0.15285954 -0.2791692 -0.06536066 -0.2746392
0002c0 a9 0b 05 be 00 0a 08 bd 03 fc 3c be ea 77 db 3c
       -0.12992729 -0.03321266 -0.1845551 0.026790578
0002d0 54 47 a3 3d 97 58 d1 3c c9 6b 60 bd e0 80 c3 3d
       0.07972589 0.025554938 -0.054790292 0.09546065
0002e0 aa a6 65 bd cc 21 ff bd cf 9b 0e bd a6 c9 ab bd
       -0.056067146 -0.12457618 -0.03481656 -0.08388071
0002f0 e8 df 34 3d a6 e6 b6 bd 93 a8 22 3e df 6c 36 3d
       0.044158846 -0.089307114 0.15884618 0.04453742
000300 59 5b 21 be 58 2e 16 3e ab 45 8e 3d 08 e9 2c bd
       -0.15757503 0.14666116 0.06946882 -0.042214423
000310 7a 81 09 3e 7c 20 a5 bc dd 64 62 3d d6 62 81 bd
       0.13428298 -0.020157091 0.055271972 -0.063176796
000320 6e b0 de 3d 57 f0 7d 3d d9 43 0d 3e 6a 71 b1 bd
       0.10873495 0.061996784 0.13795413 -0.0866421
000330 11 7b 60 be 15 fd 9c bd c0 2e 57 3d 17 e7 37 3e
       -0.21921946 -0.07665459 0.05253482 0.17959248
000340 3d 6b e1 bd dc 04 01 3e 8f 08 ec bd 92 be cc 3d
       -0.11006782 0.1259951 -0.1152507 0.09997286
000350 fc f8 a7 3d 43 c4 59 be 1c af 84 3c 5a d6 e1 bd
       0.08201787 -0.21266274 0.01619678 -0.110272124
000360 d6 88 24 3e 1d dd b6 bc 8c bc 6c bd 94 9a 00 bd
       0.16067824 -0.022322232 -0.057797 -0.031397417
000370 47 66 9c 3c a0 8e 97 3d e2 71 e1 bd 6d 74 95 3d
       0.019091738 0.074002504 -0.110080495 0.07297597
000380 ac c3 94 3d 93 fa 81 be 79 e7 4f be 0d 92 6e bd
       0.07263884 -0.25386485 -0.20303144 -0.058244754
000390 4b b8 97 bd 41 9f d8 3d 69 81 b2 bd fd b0 51 be
       -0.07408198 0.1057725 -0.08716089 -0.20477672
0003a0 04 ea 5a be 26 47 25 bd b8 82 bb bd 5d 63 ca bd
       -0.21378332 -0.040351056 -0.09155792 -0.09882233
0003b0 e2 55 10 be e1 9d 9a ba a8 2b 15 3e c6 02 ab 3d
       -0.14095262 -0.0011796319 0.14567435 0.08350138
0003c0 eb fc e3 bd 38 50 1a be 6c 60 c6 bd c8 32 ee bd
       -0.11132225 -0.15069664 -0.0968636 -0.116307795
0003d0 07 95 c7 bd 59 af 65 bd 4d 65 43 be 8d 89 15 3e
       -0.097452216 -0.056075428 -0.19081612 0.14603253
0003e0 f4 75 14 be 03 36 4a bd e0 2c 2b be 55 d8 1a 3c
       -0.1449812 -0.049367916 -0.16716337 0.009450992
0003f0 03 d3 7a bc d6 d3 3a bd 34 16 f8 3d e2 db ac bd
       -0.015309098 -0.04561218 0.1211361 -0.08440377

encoder.0.bias f4 [64]
000000 88 62 bd bc da 9b 25 3e d0 88 a8 3d 80 87 3b be
       -0.023118272 0.16172734 0.0822922 -0.18313408
000010 9b 7c 29 bc fa e7 5c bd c5 4a 3c 3e 7b 4b 47 be
       -0.01034465 -0.053932168 0.18387897 -0.19462387
000020 8d 02 72 3e 12 d5 73 bc a8 2c e1 bc 57 08 9e 3d
       0.23633786 -0.014882343 -0.027487114 0.077164344
000030 07 68 17 3e bc 3e cf 3d 6f 38 db 3d 76 cc 21 be
       0.14785777 0.101193875 0.10704123 -0.15800652
000040 b9 9e b7 3d 33 03 f1 3d 2a f1 fb 3d 10 81 78 3d
       0.08965821 0.11768188 0.12301858 0.06066996
000050 8e 7a 15 3e 20 d1 ae 3c 65 cd aa bd aa ed 8f 3d
       0.14597532 0.021339953 -0.08339957 0.07027753
000060 54 bf 6e bc a1 e9 0e 3e 07 c5 91 bd dc 70 00 3d
       -0.014571983 0.1395631 -0.07117658 0.03135763
000070 99 ca 06 be 71 21 14 be 1b cf 2f be 3e 38 9d 3c
       -0.13163222 -0.14465882 -0.17168848 0.019191857
000080 42 a7 1b 3e f3 8a 2a be f0 c4 ac 3d 2d cc 8c 3d
       0.15200523 -0.16654567 0.08436 0.06874881
000090 0a 94 f7 bd 17 9e 45 bd 57 cf 26 be 96 2c fd 3b
       -0.12088783 -0.04824647 -0.16290031 0.0077262623
0000a0 24 52 9f 3d 0a db 21 be db 4d 82 3c 22 e1 89 3d
       0.07779339 -0.15806213 0.015906265 0.06732394
0000b0 e9 5c ab 3d 77 b3 4d be f3 d3 e4 3d 16 41 37 3e
       0.083673306 -0.20087992 0.111732386 0.17895922
0000c0 e1 c5 ab bd 43 86 2a 3c 85 97 0e 3c 06 ea 5a 3d
       -0.08387352 0.010407987 0.008703117 0.05344584
0000d0 dc 62 9b bd bc bc 04 3e 47 f5 1d be ce 4b b7 3d
       -0.07587215 0.12962621 -0.15425597 0.089500055
0000e0 ed 9c 69 bd e3 36 04 be ce 41 49 3e 8d b3 f6 bc
       -0.05703442 -0.12911563 0.19654009 -0.030114913
0000f0 1d c4 a1 3d 0f b4 d1 3c b2 b5 86 bd 01 e3 9c 3d
       0.07898734 0.025598554 -0.065776244 0.07660485

encoder.2.weight f4 [128, 64, 3, 3]
000000 17 35 c1 bc 97 40 8e 3c 63 18 6c 3d 45 0b 5c bb
       -0.023584886 0.017364783 0.057640444 -0.0033576053
000010 0e 9f aa 3a 15 7e 10 3d 80 50 f4 3c d4 3b ef bb
       0.0013017373 0.03527649 0.029823542 -0.0073008332
000020 03 0d 6f 3d b1 ea 4a bb 2e f9 8b 3c 85 12 92 bc
       0.05836202 -0.003096264 0.017086592 -0.017831096
000030 9a 72 bd 3b 9a 3d aa bc b6 9d 02 3d 1a 52 1a 3c
       0.005781484 -0.020781327 0.031888686 0.009418989
000040 fe d3 76 3d 50 f8 b7 3b 78 d7 7d 3d 92 86 ca 3c
       0.060260765 0.005614318 0.061973065 0.024722371
000050 31 52 9e 3d d9 05 29 3d e3 85 5c 3d 9d 69 2f 3d
       0.077305205 0.041265342 0.05383862 0.04282533
000060 92 04 0d 3e 4f 5a 14 3d 5e b7 cd 3d fb 83 63 3c
       0.13771275 0.036218937 0.1004474 0.013886447
000070 56 b7 42 3a 88 cf 09 3d 03 a4 a0 bc a1 57 16 3c
       0.0007427832 0.033645183 -0.019609457 0.009176166
000080 53 00 7d bc 3b 63 1f bc fc 2d 16 bb 95 e3 c9 bc
       -0.015441972 -0.009728248 -0.0022915592 -0.024644652
000090 cf b9 54 3d 3c 09 07 bb 56 21 2f bd dd 16 14 3d
       0.051935013 -0.002060487 -0.0427564 0.036154617
0000a0 95 c5 09 bd 75 0b 05 bd 91 59 d1 3c 9b a6 a1 bc
       -0.033635695 -0.03248163 0.025555404 -0.019732764
0000b0 f1 0f 42 bc 70 a8 ff 3c 79 3a 77 3c 53 1f 0b bd
       -0.011844621 0.031208247 0.015089625 -0.03396542
0000c0 14 24 0e bc 18 7c 3f 3d b8 2a 34 3c 9d c3 19 bd
       -0.008675594 0.046749204 0.010996513 -0.037540067
0000d0 d8 81 bc 3c 68 ef 31 bb 37 54 8e bd 72 1c e4 bd
       0.023011133 -0.0027150754 -0.069496565 -0.11138238
0000e0 14 6f 33 be f0 ec 88 bd 91 db 49 bd 27 46 98 bd
       -0.17522842 -0.06685817 -0.04928166 -0.074352555
0000f0 92 fe 0c be dc b5 5e bd 7d 0e 0b bd b6 a3 6e 3c
       -0.13768986 -0.054372653 -0.033949364 0.014565399
000100 40 34 eb bc 47 f5 82 bd 05 e8 19 3d 12 be 91 bb
       -0.028711438 -0.06394439 0.037574787 -0.004447707
000110 77 25 15 bb 6e 3e d9 3d 62 00 a9 3d 8c 5c cb 3c
       -0.0022757926 0.10607611 0.08252026 0.024824403
000120 18 c1 b9 bd 3d d8 b9 bd 8b 02 b6 bd fa 92 4e bc
       -0.09070033 -0.09074447 -0.08887204 -0.012608284
000130 dd 08 b8 3b 0a 53 6e bd d9 8a 78 bd 2f 37 74 bc
       0.005616291 -0.05818466 -0.06067929 -0.014905735
000140 2a e6 c9 bc bc 64 1c 3d 95 f7 2f 3d a7 7c 9f 3d
       -0.024645884 0.038182005 0.042960722 0.077874474
000150 04 91 13 3d 9b 65 60 3d be 87 b4 3d da ac eb 3d
       0.03602697 0.0547844 0.08814953 0.11507578
000160 6a 7d ad 3d 49 c0 9d 3d 49 c2 91 3d 07 4d d2 3c
       0.084711865 0.07702691 0.07117135 0.025671495
000170 ea 9b f4 3d 79 35 f1 bb 5a 63 00 3d f1 77 a2 3d
       0.11943801 -0.0073611108 0.03134475 0.07933033
000180 c7 15 a3 3d e7 3d 9e 3d d8 c9 15 3e 32 46 fd 3b
       0.07963138 0.07726651 0.14627779 0.007729315
000190 9e 7a 37 bd f2 9f aa bc eb 4e 56 3d 34 28 b9 bc
       -0.04479467 -0.020828221 0.052321356 -0.022602178
0001a0 35 b4 19 bc be 60 1e 3d 01 10 ff 3c 87 23 47 bc
       -0.009381344 0.03866648 0.031135561 -0.0121544665
0001b0 05 f0 84 3c 5c 0b 9c 3c 8c e9 fe 3c 83 4c c1 3c
       0.016227731 0.019048385 0.031117223 0.023596054
0001c0 32 c2 85 3c d8 43 ca bc 7c 89 a3 bc 9f 7c 98 3c
       0.016327951 -0.024690554 -0.019963019 0.018614111
0001d0 af ad 18 bb c7 a6 82 bc 73 37 67 bc 4a d3 27 3d
       -0.0023296883 -0.015948666 -0.014112341 0.040972985
0001e0 6f 57 1a 3c bb 84 87 3c eb f7 d3 3b c7 60 4c 3c
       0.00942026 0.016542783 0.006468763 0.012474245
0001f0 19 c2 47 3b 76 ad 0a 3d ae 7b ae 3c 00 c4 c5 bd
       0.0030480681 0.03385683 0.02129921 -0.09656525
000200 69 62 cf be 68 8e 07 be 4d ce c3 bd e8 46 f6 be
       -0.40504768 -0.13237917 -0.09560833 -0.48100972
000210 cd 37 08 bf 19 ea 01 bf 48 26 59 bf a0 8f 53 3b
       -0.53210145 -0.5074783 -0.8482404 0.0032281652
000220 73 48 18 3d 79 38 fe 3c 50 03 33 3c d1 93 42 3d
       0.037178468 0.031032788 0.010926083 0.04750425
000230 21 65 75 3c 46 a7 f6 bc 0f 75 67 3a 25 b1 d8 3b
       0.014977724 -0.030109059 0.0008829394 0.006612914
000240 c9 69 82 bb a9 48 4e 3d d6 c7 1d 3d 51 d8 d8 3c
       -0.0039798957 0.050362263 0.038520657 0.026470335
000250 31 71 8e bc 49 31 aa bc ae 43 96 bc f7 de b0 bc
       -0.017387958 -0.020775454 -0.018342819 -0.021590693
000260 55 08 14 3c f3 5d fc 3c 13 23 1d bd 70 95 52 ba
       0.00903519 0.030806517 -0.038363528 -0.0008033132
000270 89 63 ff bc e3 f1 1b bc 9a 50 58 3c 4b d4 ed 3c
       -0.031175392 -0.0095181195 0.013202811 0.029031893
000280 36 ec bd 3c a2 05 9f 3c 41 d9 06 bd d1 d2 b1 3c
       0.023183923 0.019411866 -0.032922033 0.02170697
000290 47 ca 03 3d 10 89 8f 3c 5f 6b c1 3c 13 c8 dc bc
       0.03217533 0.017521411 0.023610769 -0.026950872
0002a0 10 ed 40 bd bb 61 a5 3c 64 34 88 3c ac 87 ed 3d
       -0.04710108 0.020188203 0.016626544 0.11598143
0002b0 d9 bc e1 3d c5 cf 49 3e 23 9d d6 3d 11 0a 34 3d
       0.11022348 0.19708164 0.1047919 0.043954913
0002c0 17 b3 99 3d b4 fa a0 3d 8e c1 6d 3d 71 92 f4 3d
       0.07504862 0.07860318 0.058045916 0.11941994
0002d0 6e 9c 78 3c 1b 33 97 bb 41 c5 d8 3c fe 9b 24 bd
       0.0151740145 -0.0046142465 0.026461245 -0.04018783
0002e0 83 98 b6 3c 1d 5e 09 3d 4d 14 3f bc 5c a4 f0 3a
       0.02228952 0.03353702 -0.011662555 0.001835953
0002f0 5b fe cb bc 20 df f3 bb 12 21 0e 3b 54 6d 5e bc
       -0.02490156 -0.00744237 0.0021687192 -0.013575871
000300 1e 66 b2 3c 99 b4 47 bd 68 60 83 3b bf e5 52 ba
       0.021777209 -0.048756216 0.0040092953 -0.0008045099
000310 4f 95 09 3d 74 de af 3b 8c a8 0c 3c 4e a4 de 3c
       0.033589657 0.0053670947 0.008585107 0.027177956
000320 82 cc 7e ba ff e3 9e bc f6 e3 0a 39 97 7d bc 3c
       -0.0009719805 -0.019395826 0.00013245628 0.023009105
000330 a3 2b 77 3c ba eb 0a bc 42 4c 96 bc c7 f5 77 3d
       0.015086087 -0.008479053 -0.01834691 0.060537126
000340 88 30 d9 3c 2c ff 01 3d e5 ba 2b 3d 33 6a 19 3d
       0.0265124 0.03173749 0.041926283 0.037454795
000350 a1 71 c8 3c 3a 7b 0c 3d d5 bb 53 bc 1b 89 30 bb
       0.024468245 0.034297206 -0.012923201 -0.002693719
000360 d9 fc d0 bc 45 d8 6d bb 1f 72 ca 3c 12 b6 1e bd
       -0.025511192 -0.0036292237 0.02471262 -0.038747855
000370 af 22 b1 bc e7 87 d3 bb c0 a8 ac bb 6e 66 86 bc
       -0.021622984 -0.00645541 -0.00526914 -0.016406264
000380 12 c0 3a 3d d1 36 24 bd e1 44 09 bc 9b 74 1d bd
       0.04559333 -0.04009134 -0.008378238 -0.03844128
000390 6b 96 9d 3b e2 69 b0 bc 3f f0 07 3d 0a 10 13 3d
       0.004809191 -0.021534864 0.0331881 0.035903968
0003a0 71 30 11 3d cc 4f 3b 3d f2 d2 88 3d 4e a3 82 3d
       0.035446588 0.045730397 0.066808596 0.06378804
0003b0 b3 ab e5 3d bb fd 60 3d 7f c6 8d bc cd c9 a5 3c
       0.1121439 0.054929476 -0.017306564 0.020237828
0003c0 b2 49 ac 3d ee 5c 36 3d 4d b8 cf 3c e5 83 19 3d
       0.08412494 0.04452222 0.025356436 0.0374793
0003d0 8d 88 5c 3b 54 f2 8b bc cc 55 22 bc 43 b6 0c bc
       0.0033650727 -0.017083324 -0.009908151 -0.008588376
0003e0 3c c1 f3 3c 54 f2 03 bd 72 d8 ca bc 01 d6 8c 3c
       0.029755227 -0.032213524 -0.024761412 0.017191889
0003f0 f7 96 20 bd 65 7d ad bc 7b 6b a2 bb 85 d1 0c bd
       -0.03920647 -0.021177957 -0.0049566603 -0.0343795

encoder.2.bias f4 [128]
000000 50 30 39 bd 1e 0c aa bd c5 da b0 bc 66 bf a4 3d
       -0.04521209 -0.083030924 -0.021588692 0.08044319
000010 26 cd 14 3c ba 19 87 3d 1c d6 1c 3c 93 30 1d 3d
       0.009082114 0.06596704 0.009572532 0.038376402
000020 d6 77 0d 3d c2 66 bd 3d 1b 42 7a ba 5a 89 61 3d
       0.034538113 0.09248115 -0.00095465936 0.05506263
000030 53 9e 15 3d cf 7f 80 3d 16 df 1e bd 85 a2 4c 3d
       0.036527943 0.062743776 -0.03878697 0.04995968
000040 c6 d2 60 3d 44 4d a4 3d 4d 5e 84 3d 61 fe 8f 3d
       0.05488851 0.0802255 0.06463299 0.07030941
000050 80 b9 5e bc 01 6f 0a bd 7b 90 0c 3d 20 ce 7d 39
       -0.013594031 -0.033797268 0.034317475 0.00024204748
000060 61 b5 97 3b e8 f5 a0 3d 4c 46 67 3d f8 9f 2e 3d
       0.0046297763 0.07859403 0.056463525 0.042633027
000070 9c 2a 49 bb b1 e0 04 bd 4d 4d 39 3c 25 5a 41 39
       -0.0030695563 -0.032440845 0.011309934 0.00018439496
000080 b7 de 06 3d 4c 69 53 3a d3 9d cf bb 6e 99 28 3b
       0.03292724 0.00080647017 -0.006335953 0.0025726217
000090 7d 25 28 3d 59 a5 da 3d 33 69 1a 3d 60 02 0b bc
       0.041051377 0.10676069 0.037697982 -0.008484453
0000a0 7f f5 e7 3b 97 6e 1c bd 11 97 a0 3d 2e f7 53 bc
       0.007078826 -0.038191404 0.07841314 -0.01293735
0000b0 cd 13 2f bc 7a 12 2e 3d 98 45 0a bc 70 1f 81 3d
       -0.010685873 0.04249809 -0.008439444 0.06304824
0000c0 dd ac 3c 3d 12 99 97 3d 14 20 96 3c 21 89 f4 bc
       0.046063293 0.07402243 0.018325843 -0.029850544
0000d0 09 a9 70 ba 8c e3 75 3c 39 7e 95 3b 75 1a bc bc
       -0.00091804616 0.015007865 0.004562166 -0.022961834
0000e0 ba c1 c5 bc f8 f8 a8 3d b8 11 f6 bc 1d c3 6d 3d
       -0.024140228 0.08250612 -0.030037746 0.058047403
0000f0 20 5f 95 3d da 41 a4 3d 21 92 32 bb 9b 60 9d 3d
       0.07293534 0.08020373 -0.0027247744 0.07684442
000100 e2 e9 9d 3d 84 a5 1a 3d e4 37 25 3e 64 c6 12 3d
       0.07710625 0.037755504 0.16134602 0.03583373
000110 c9 e2 fe bc da 70 2d 3d b1 17 2b bd a7 3e d7 3c
       -0.031113999 0.04234395 -0.04177064 0.026274992
000120 e7 5d 89 3d ed 91 44 3d 21 57 56 3c 63 fb 84 3d
       0.067073636 0.04799073 0.013082297 0.06493261
000130 41 f2 99 bd 05 2b d7 3c 8a 77 20 bd 3e 60 9c 3d
       -0.075169094 0.02626563 -0.0391765 0.07635544
000140 5d 0a dd bb 46 8b af 3d 55 2f 45 3c d7 95 83 3d
       -0.00674562 0.08571486 0.012035211 0.06425064
000150 bc a5 ae bb 91 86 c2 3d bf 2c e6 ba 8a 83 34 3d
       -0.0053298157 0.09498323 -0.0017560943 0.044070758
000160 d2 24 57 38 14 85 b3 bc b9 0c 3a bd 42 ce 47 bd
       5.1294286e-05 -0.021914043 -0.04542229 -0.048780687
000170 64 80 2b 3d 44 68 00 3c 00 7c e7 3c 0d be b0 3c
       0.04187049 0.007837359 0.02825737 0.021574998
000180 ae 71 75 3d cb 22 28 3c 01 a5 7f 3d 1a 80 c0 3b
       0.059922867 0.010262202 0.06241322 0.005874646
000190 a7 6b b0 3c 86 0e 01 3d 04 5c 42 3d b9 95 5c 3d
       0.021535708 0.03150799 0.047451034 0.053853724
0001a0 a6 5c ae 3d b5 b5 b3 bc be a3 5a bb 7a 5f 64 bc
       0.08513765 -0.02193723 -0.0033361758 -0.013938779
0001b0 66 d9 ff bc 61 36 42 bd cd 4c 09 bd 18 cd 4a 3c
       -0.031231593 -0.04741514 -0.03352051 0.012378
0001c0 f5 c8 af 3c 3b 80 65 3d 6c 70 98 3d f3 39 30 3d
       0.021458128 0.056030493 0.07443318 0.043024015
0001d0 9d 22 40 bb fc 8e 7a 3c 1e a6 08 3d 81 32 df bc
       -0.0029317506 0.015292879 0.033361547 -0.027245762
0001e0 a3 70 28 3d 71 1e 26 bd 72 bb ad 3c 8d 4a 2f 3d
       0.041123044 -0.040556375 0.021207545 0.042795707
0001f0 aa db 83 3d 2c 53 b1 3d 8e 8d 69 bd c9 aa 1e 3d
       0.06438382 0.08658442 -0.057019763 0.038737092

decoder.0.weight f4 [64, 128, 3, 3]
000000 98 19 36 bd c2 8a 85 bb 42 be 3c 3e a4 24 b2 bc
       -0.044458 -0.004075379 0.18431953 -0.021745987
000010 02 0a bc bc df 8d 44 3d 55 e0 01 be 9f 12 99 bc
       -0.02295399 0.04798686 -0.12683232 -0.018685637
000020 70 09 f5 3d 96 d2 8b 3e f0 47 5b be 61 98 d4 be
       0.11964691 0.27309102 -0.2141416 -0.41522506
000030 db 02 5e 3e 41 c2 40 be 0b 46 a6 be 08 e9 fa 3e
       0.21680777 -0.18824102 -0.32475314 0.49005914
000040 3c bf 35 be 63 44 8b be 75 95 86 bd cb 0f 34 bd
       -0.17748731 -0.27200612 -0.065714754 -0.043960374
000050 71 06 0c 3e c5 cc 55 3d 2d 08 bf bc d5 8c 8f 3d
       0.13674332 0.052197237 -0.023319328 0.070092835
000060 7a cc 9f bc c8 1c a5 3d 60 0c eb 3d 68 c4 d1 bc
       -0.019506682 0.0806213 0.1147697 -0.02560635
000070 14 17 57 3d 42 bd 0e be a7 46 1c 3c 73 76 b6 3d
       0.052512243 -0.13939384 0.009538329 0.08909311
000080 8b 8f 96 3c 5f b7 53 3e 2a d4 11 3d 60 7f 1f be
       0.018378993 0.2067542 0.035602726 -0.15575933
000090 99 43 9b bc 25 aa fa 3c f0 c9 95 bc a4 a2 90 bc
       -0.018953132 0.03059871 -0.018284768 -0.017655678
0000a0 cd c0 ff 3a ff 61 df bc e3 35 3c 3c d0 96 09 3b
       0.0019512415 -0.027268408 0.011487457 0.0020994432
0000b0 8a 74 bd 3c fe 36 f4 3c 0c 99 f3 3d 18 43 42 be
       0.02312686 0.029811379 0.11894426 -0.18970907
0000c0 13 8e 0a 3d 59 9a 14 3e 78 28 24 3d 2b 34 53 3e
       0.0338269 0.14512004 0.040077657 0.20625369
0000d0 8e 1c a4 3b 69 3b 7c be be 08 40 bd 5d 82 73 bd
       0.005008287 -0.24632038 -0.046883337 -0.059450496
0000e0 cc 5f c5 3d d9 61 f8 bc e5 98 2e bd 69 fd 77 3b
       0.096374124 -0.030320095 -0.04262628 0.0037840253
0000f0 52 c2 0a be a8 88 30 ba a3 7a d7 3c d5 84 7b bd
       -0.1355069 -0.00067342306 0.026303595 -0.061405975
000100 cd 89 2c bd 91 ee 35 bd cd 22 6e bc 63 36 94 3c
       -0.042123605 -0.044416968 -0.014534664 0.01809234
000110 0d b8 d1 3d 12 96 75 3e 12 c2 bf bd 99 6c 99 bd
       0.10240183 0.23983029 -0.09363188 -0.074914165
000120 f4 6e 40 bd 0e 19 7c 3d a3 4a 7b be f8 e0 b3 3c
       -0.046980813 0.06154733 -0.2454019 0.02195786
000130 c1 1b 15 3e d1 21 a0 3d 43 c3 1c 3e 81 e9 c8 3c
       0.14561369 0.0781895 0.15308861 0.024525406
000140 b6 50 57 be 2e bb da 3d 7e 66 8f bc 41 42 41 be
       -0.21026883 0.10680233 -0.017504927 -0.1887293
000150 5a d3 ba 3d 29 c5 c2 3d bd 43 05 3d e0 6d 8f 3e
       0.09122343 0.095102616 0.032535303 0.28013515
000160 80 aa f9 3c 1c 87 b0 bd e1 86 0c 3d 26 02 c4 ba
       0.030476809 -0.0861952 0.034308318 -0.0014954254
000170 10 fb a5 3c 6a e4 84 bc 7a b1 a9 3c 38 68 0b 3c
       0.020261317 -0.016222198 0.02071451 0.008508734
000180 ac d1 2d bc af 02 8e 3c e8 0f 11 3c 3d 62 ee 3c
       -0.010609072 0.017335264 0.00885389 0.029099578
000190 12 a3 b3 3d 49 8b 0b bd 63 25 25 3d 22 b7 88 3d
       0.087713376 -0.03406838 0.040318858 0.06675555
0001a0 72 0a d5 3d 56 d6 21 3e 5c 19 46 bb cf 3f 19 bd
       0.10402383 0.15804419 -0.0030227518 -0.03741437
0001b0 7b 7d 4e bd 68 35 42 3e e0 24 57 be 52 45 40 bd
       -0.050412636 0.18965685 -0.2101016 -0.04694111
0001c0 52 36 23 3e 9a a7 19 3e 30 b6 a3 3d 2e 33 be bc
       0.1593869 0.15005341 0.07993734 -0.023217764
0001d0 97 28 2f be 02 16 35 39 8f 16 e1 3a 80 d2 b4 be
       -0.17105328 0.00017269704 0.0017172861 -0.3531685
0001e0 3c 63 4a 3d 43 4c 91 3d 59 37 c0 bd 14 1b 82 3e
       0.049411044 0.07094624 -0.09385557 0.25411284
0001f0 a8 b3 e9 3c 3f 99 99 be 76 30 a2 3c a4 f5 93 b6
       0.02852805 -0.2999973 0.019798499 -4.4095377e-06
000200 78 f9 96 3c 63 fa 6c 3c 46 2d bd ba 47 b1 19 3b
       0.018429503 0.014463994 -0.0014433048 0.0023451613
000210 50 93 44 b7 0f 5b cb bb 27 37 b3 bc 00 f5 ae 3d
       -1.1716809e-05 -0.0062059234 -0.021876885 0.08542824
000220 39 b2 81 be 32 8c 02 3f a6 87 80 3e 49 e7 0b be
       -0.25331286 0.5099517 0.25103492 -0.13662447
000230 8d a5 de 3e 6f d5 06 be f0 c3 16 be de 0a 08 3f
       0.4348568 -0.13167356 -0.14723182 0.5314158
000240 c8 a1 29 bc 2a a6 4f 3b 38 3f 08 3e 3a a9 29 3d
       -0.010353513 0.0031684735 0.13305366 0.041421153
000250 56 d4 fc bc 66 8f c4 39 9d d0 d6 bd 78 8b f6 39
       -0.030862968 0.00037490873 -0.104890086 0.0004702469
000260 9f 5d 13 3d 2e 41 5f 3c e3 e4 48 bd 52 8e 19 be
       0.035977956 0.01362638 -0.04904641 -0.14995697
000270 8f 55 22 3d 9e b8 19 bd 0f c7 35 3d c8 ce 91 3e
       0.039632376 -0.03752958 0.04437929 0.28478074
000280 2d 88 57 bd fe a3 8e bd 2e 08 04 3d 20 9d fb 3c
       -0.0526201 -0.06964873 0.032234363 0.030714571
000290 ef ab ba bd 00 fe 3a 3d 30 07 24 bc 54 e9 1b 3e
       -0.09114825 0.04565239 -0.010011479 0.15225726
0002a0 91 aa f1 3d 81 3c 0d be 77 ed 49 be c0 b9 8f 3d
       0.11800111 -0.13792612 -0.19719492 0.07017851
0002b0 5a ee 54 3d 1c 7a 70 bd 50 d5 81 3d 9e e6 19 3d
       0.051985122 -0.058710203 0.06339514 0.03757345
0002c0 7e b1 8e 3d 86 25 06 3e b1 77 c3 3b aa 77 ec bc
       0.06967448 0.13100252 0.005965196 -0.028865654
0002d0 9f 27 54 3c bf 96 e6 bb 3e 1a a2 bb 52 6c a4 3c
       0.0129488995 -0.0070370133 -0.004946976 0.020071182
0002e0 3f 56 b3 3b c8 6e a2 3c 6b af 74 3c 58 37 08 3c
       0.005472928 0.019828215 0.014934401 0.008313976
0002f0 73 16 d8 3c cc 50 e0 3c e2 47 38 bb 3d ad 19 3d
       0.026377892 0.027382277 -0.0028119017 0.03751873
000300 21 70 0b bc ac 02 f6 bb f3 52 d4 3b fe 5c b3 3c
       -0.00851062 -0.0075076427 0.006479615 0.021894928
000310 e0 ad 6c bc d2 ee 9c bb 8f ab 76 bd cc 12 99 bc
       -0.014445752 -0.004789212 -0.060222205 -0.01868572
000320 9b db 88 be ae f1 8a bc 92 05 ab 3d 5e bf ff bd
       -0.26730046 -0.016960945 0.08350672 -0.12487672
000330 99 56 32 3e 61 73 55 3d 96 43 58 be 51 95 75 bc
       0.17415847 0.052111987 -0.21119532 -0.014989213
000340 d3 99 15 3e f5 65 27 be 15 39 09 3c 5d 51 5f 3e
       0.1460946 -0.16347487 0.008375426 0.21808381
000350 b4 4c 41 3e fd b0 b9 3d ae 0e b8 bc 08 f4 16 bd
       0.18876916 0.09066961 -0.022467937 -0.03685382
000360 64 92 c2 3b 22 2b 36 3c 90 4e cc 3b 80 0f 68 bc
       0.0059378613 0.011118682 0.0062349513 -0.014163852
000370 99 c3 c7 bb b9 57 ab 3c 25 29 cf 3a 3c 15 c5 3c
       -0.006096315 0.020915853 0.0015805109 0.024057977
000380 ce 6d 05 bd 44 3a ec bc 79 ce 83 3d cc a3 ca bc
       -0.03257542 -0.028836377 0.06435866 -0.024736308
000390 ac fd 0e bd ed 54 f6 3c 42 2f bd 3d 6f 3e e3 3d
       -0.03490989 0.030069793 0.09237529 0.11095893
0003a0 f1 b8 0c 3c 97 94 9c bd 42 15 a2 bd e9 30 68 bd
       0.008589015 -0.07645529 -0.07914211 -0.05668727
0003b0 71 d0 83 be 7d 31 a0 3d 44 ba cd 3d ab 7a 49 3e
       -0.25744966 0.07821939 0.10045293 0.196757
0003c0 6e d2 01 3e 61 20 da bd 33 f1 59 bd 5f d0 c4 bb
       0.12677929 -0.10650707 -0.05320854 -0.006006285
0003d0 95 54 af 3c 56 84 b7 bd e7 27 a1 3b 86 4a 2e 3d
       0.021402637 -0.08960788 0.004918087 0.04255154
0003e0 19 69 33 3d 33 bb 98 3d 62 c8 6d bd 8a 56 8b bd
       0.0438014 0.074575804 -0.058052428 -0.068036154
0003f0 e4 54 fa bd 33 7e b0 3c e9 dc 47 bd ad be 47 be
       -0.12223223 0.021544551 -0.04879466 -0.19506331

decoder.0.bias f4 [64]
000000 3c 28 98 3d b3 36 a6 bd 6d 66 b6 3d e2 97 19 3d
       0.07429549 -0.08115902 0.08906255 0.037498362
000010 8c 39 79 3c 43 92 d1 3c fa 14 cd 3d 01 86 33 3d
       0.015211474 0.025582438 0.100137666 0.043828968
000020 41 67 d7 bc 40 af f6 3d d0 b7 27 3d 4c 59 40 bb
       -0.026294352 0.12045145 0.04094678 -0.00293501
000030 96 99 87 bc 53 a3 22 bd 58 3d 48 3d f8 f4 d3 3d
       -0.016552728 -0.03970654 0.048886627 0.103494585
000040 2a 4c e5 3c 8f 9e 1e 3d 54 e4 9f bc 0f 3a 98 3c
       0.02799042 0.038725432 -0.019518055 0.018582372
000050 8d 0c 39 3c c9 eb 91 3c 9f 01 c9 3c 61 1d 01 3d
       0.011294496 0.017812626 0.024536906 0.03152216
000060 42 78 57 bd 37 82 49 bc 2f 1d e3 bb 99 8b 29 3c
       -0.05260492 -0.012299112 -0.006930969 0.010348224
000070 c1 90 64 3c a9 a6 00 3e 85 f2 74 bc 24 19 2c bc
       0.013950528 0.12563576 -0.014950399 -0.010504041
000080 ae 02 81 3a 1b 62 04 3c 31 6e a8 3d 31 6a b4 bc
       0.0009842718 0.008080031 0.08224142 -0.022023292
000090 b6 91 1b bd fb e3 d6 bc cf 6b 99 bb f0 7f 29 bc
       -0.037980758 -0.026231756 -0.0046820412 -0.010345444
0000a0 57 6a 11 bd 40 49 ad ba 93 53 18 3d 8b 16 e0 3c
       -0.035501804 -0.0013220683 0.037189078 0.0273545
0000b0 67 01 a7 3d d9 33 7d bc e5 25 9b 3c 63 c7 08 ba
       0.08154564 -0.015454256 0.018938968 -0.0005217699
0000c0 53 cc 61 bc f8 49 11 bd 09 e9 fd 3d 7b 70 a0 3d
       -0.013781625 -0.035470933 0.123979636 0.07833954
0000d0 c6 81 ef bc b5 52 64 3d 91 33 81 3c 71 1a ee bc
       -0.029236685 0.055742938 0.01577166 -0.029065343
0000e0 ad db bf bb 11 df 48 3d 1c 8b d1 3c 19 0e 03 bd
       -0.005855045 0.049040858 0.025579028 -0.031995866
0000f0 ca 9f af bc 6b 04 f9 3d d5 7f 89 3c b1 e7 96 3d
       -0.021438498 0.12159046 0.016784588 0.073684104

decoder.2.weight f4 [1, 64, 3, 3]
000000 cb 83 81 3c f9 26 c1 bc 4d 3f e9 bd 49 85 59 3d
       0.015809914 -0.023578154 -0.11389027 0.053105626
000010 d0 45 69 3d e5 28 71 bd 7e 97 bd 3d a3 ba 5b 3d
       0.056951344 -0.05887689 0.092574105 0.053644788
000020 17 db 91 bd 8f f8 7f bd c3 3c cb bd f4 29 33 bd
       -0.07121866 -0.062492903 -0.09923699 -0.04374118
000030 9d 02 db bd 6d 13 b3 bd c6 1e 07 be b5 fb 7d 3d
       -0.10693858 -0.087439395 -0.13195333 0.062007625
000040 89 d9 c4 3c 9b 2a 8f 3d 91 2e 10 3e bd ad a7 3d
       0.02402951 0.06990548 0.14080264 0.08187435
000050 fd e2 23 3c 43 a6 1e 3d 33 4f 4c bc 2f 74 09 bc
       0.010002849 0.03873278 -0.012470054 -0.008389517
000060 90 b7 6d bd 81 ad 4e bd d8 a7 0a be 97 eb 0f 3e
       -0.058036387 -0.050458435 -0.1354059 0.14054714
000070 e4 28 07 3d 38 28 4a 3d 9a 94 7c 3d 2e 6c 53 bd
       0.03299798 0.04935476 0.061665155 -0.05161684
000080 ed 7a 3c bd e7 38 aa 3d e2 9b 0b 3b f6 a8 3d bd
       -0.04601567 0.083116345 0.002130263 -0.04630371
000090 fc 69 89 bc 5a e8 8c bb 22 98 d7 3c 1d bc 0a 3d
       -0.01677417 -0.0043001594 0.02631766 0.033870805
0000a0 5e 5f 0c 3d af f2 9c 3c b3 dc 8f 3d af 88 74 3d
       0.034270637 0.01915869 0.07024517 0.059700664
0000b0 a1 06 96 3d a8 50 57 bd fe 20 1a bc de 9f 88 bd
       0.07325483 -0.052567154 -0.00940728 -0.06671117
0000c0 8a d1 f2 3b ac e8 18 3d 38 d7 e5 bc fa cc cf 3b
       0.007410233 0.03733127 -0.028056726 0.006341574
0000d0 a6 c0 0a bc e0 52 12 bd 3f e7 21 be 4c 70 9b bd
       -0.0084687825 -0.035723567 -0.1581087 -0.07589778
0000e0 52 f3 e0 bd a1 3d bc bd f3 9a ed bc 6c 56 95 3a
       -0.1098391 -0.09191442 -0.02900455 0.0011393554
0000f0 74 6f d5 bd d1 3a eb bb 3b 85 b9 bc 37 a9 2d 3d
       -0.104216486 -0.0071786423 -0.022646537 0.042397704
000100 e8 32 d6 39 00 c8 a4 3d 4f 7a 12 bc 57 aa 6c 3c
       0.0004085519 0.080459595 -0.008940293 0.014444909
000110 35 d4 27 3d fe 9c a2 3c ba c3 05 bb 69 0c dd 3c
       0.04097386 0.01985025 -0.0020410852 0.026983457
000120 e1 ae 97 bc 96 b0 c4 ba 0d 69 e9 bc 54 c2 fa 3c
       -0.018516006 -0.001500624 -0.028492475 0.030610241
000130 70 55 92 3b 62 88 f3 3c 15 9a 2f 3c 93 bb cd 3c
       0.0044657513 0.029728118 0.010717888 0.025113856
000140 a2 30 cc bb 22 04 64 bd b7 1b 63 bd e7 02 b2 bd
       -0.0062313834 -0.055668004 -0.055446353 -0.0869196
000150 18 dc 0c bc 59 2f 92 bb 67 ec 24 bd 63 f9 bc 3b
       -0.008597396 -0.0044612107 -0.040264513 0.005767034
000160 50 ee 09 bd 5e 85 91 bd f9 e8 ca 3c 75 29 2b 3d
       -0.033674538 -0.07105516 0.024769293 0.041787583
000170 f6 d2 8e 3d b7 fa 26 3d 18 d8 b6 3b 35 fe 9d 3c
       0.06973831 0.040766444 0.0055799596 0.019286254
000180 af d3 ae bb 67 3a 0e 3d d4 bc 8d 3d ae d9 81 3d
       -0.0053352932 0.034723666 0.06920782 0.06340347
000190 6c 4a 1e 3d 6f a3 6a 3c 00 c5 b9 ba 47 87 e7 bb
       0.038645193 0.014321192 -0.001417309 -0.007065687
0001a0 ff c9 83 3c 17 1f 20 3d 7f 48 3a 3d 1c 08 de 3d
       0.01608753 0.03909215 0.045479294 0.108413905
0001b0 5b 80 90 bc 2a 28 81 bd b7 3e cf bd 52 8c 03 3d
       -0.01763933 -0.06306489 -0.10119384 0.03211624
0001c0 24 be 95 bd aa b4 82 bd 95 12 09 3e d3 5a 93 3d
       -0.07311657 -0.06382115 0.13385995 0.07195058
0001d0 97 e6 f3 3d d7 60 15 3c 67 d7 1f bb 87 50 af 3c
       0.11909216 0.009117327 -0.0024389864 0.021400703
0001e0 cf 8e 40 3c e4 94 3e bc 1a 24 5f bd bf 56 f7 bc
       0.011752798 -0.011632178 -0.05447779 -0.030192731
0001f0 f8 ea 7d 3b 0c eb bf 3c 1d 00 10 3e 5f 3e 82 3d
       0.0038744789 0.023427509 0.14062543 0.063595526
000200 16 55 c9 bb 92 6a a6 3c e9 ce 4a bd 36 dc 06 3c
       -0.0061441762 0.020314489 -0.04951373 0.008231213
000210 48 79 9b bc 83 60 61 bd cb c6 79 bd 6a be e3 bc
       -0.01897873 -0.05502368 -0.0609806 -0.027800757
000220 c9 b0 64 3d dd 3f 05 3e 3e d4 6a bd ea 4e cf bc
       0.055832658 0.13012643 -0.057331316 -0.025306184
000230 fa d0 96 3d 87 b7 f8 bd 0d 6c 54 bd 68 e3 83 3d
       0.07364078 -0.1214438 -0.051860858 0.06439859
000240 b9 49 e3 3d 88 87 40 3d be 05 63 3d a7 a5 0f 3d
       0.11098046 0.047004253 0.055425398 0.035070088
000250 a5 56 6e bd 10 d8 a1 bc 18 98 51 3d 72 ae bc 3b
       -0.0581881 -0.019756347 0.05117044 0.0057581
000260 1e 81 8c bc 6a 6a 7f bd 2f 78 fc 3c d4 c1 8b 3d
       -0.017151412 -0.062357344 0.030819027 0.06824079
000270 95 f4 86 bc ed a9 f4 3c bf 39 6c 3c 95 4f ca bd
       -0.016474048 0.029866183 0.014418065 -0.0987846
000280 ea 54 33 bc e6 4b 01 3d e8 5e 51 3c 35 0c 0e bd
       -0.010945538 0.031566523 0.012778975 -0.03467961
000290 2b e9 bd 3c 69 3a 72 3c ce 2f 0d 3d 31 00 d7 3c
       0.023182472 0.014784434 0.03446942 0.026245208
0002a0 8f e8 2f bd ba 11 82 bc b6 45 d8 3c 59 00 1d 3d
       -0.042946395 -0.015877593 0.026400428 0.03833041
0002b0 5e 6f c7 3b 58 b5 91 3d d3 40 ac 3c b5 4c e8 bc
       0.006086274 0.07114667 0.021027004 -0.02835689
0002c0 45 da 6f 3d eb 13 0f bc eb 59 30 3d 36 a7 d0 3d
       0.058557767 -0.008732776 0.043054502 0.10188143
0002d0 e6 ed 5d 3d 6e a7 93 3c bc 9c 27 3d a4 c5 f5 bc
       0.054181956 0.018024173 0.040920958 -0.030001469
0002e0 55 e8 94 bc f8 69 16 3d 7b 01 25 3d 97 a6 25 3d
       -0.01817719 0.036722153 0.040284615 0.040442076
0002f0 b2 db 1e 3d 30 78 c7 3c 11 d5 16 3d 80 ae 42 3d
       0.038783737 0.024349302 0.03682429 0.047529697
000300 7f 8b 12 bd 4e 5c d7 bc c7 44 26 3d 5c 22 8e 3d
       -0.035777565 -0.026289131 0.040592935 0.06940147
000310 9c 66 ca 3c 97 54 0c 3d 66 e2 97 3d 19 f9 06 bd
       0.024707131 0.03426036 0.07416229 -0.0329524
000320 07 f7 8f 3d 46 0f 9a bb 76 9c d8 bc bb cf 1d 3c
       0.070295386 -0.0047015278 -0.026441794 0.009632046
000330 3d 89 54 3d 21 85 08 3d e3 0e 85 3d 16 db 84 bd
       0.051888693 0.033330087 0.0649698 -0.064871
000340 ad 43 f7 bc cf 02 f2 3c af 62 85 bc f5 35 6e 3d
       -0.030183638 0.029542355 -0.016282408 0.058156926
000350 b3 96 0f 3d 45 13 66 bd 91 fe 75 3b 62 81 74 bd
       0.035055827 -0.05617072 0.0037535767 -0.0596937
000360 2d 98 fc bc 3a f2 82 bd 96 5b aa 3c 28 5c 71 bd
       -0.030834282 -0.06393857 0.020795625 -0.058925778
000370 82 96 73 bd 8e ce d4 3b 50 69 be 3b 1b c6 86 bd
       -0.059469707 0.00649435 0.005810894 -0.06580754
000380 62 68 66 3a df 68 77 3c 54 fe 05 bd f3 a1 94 bc
       0.0008789358 0.015100687 -0.03271325 -0.01814363
000390 3c db 89 3c 46 4d 81 bc 33 4b 7b 3b 7c 0e 9d 3c
       0.016828172 -0.015783917 0.0038344383 0.019171946
0003a0 5c 1f 6a 3c 93 1a 06 bd c6 a1 9f 3c 86 5e b6 3c
       0.014289703 -0.032740187 0.01948632 0.02226187
0003b0 7e b2 9f 3c 55 30 26 bd 6b 53 89 3b a2 f2 ac 3c
       0.019494291 -0.040573437 0.0041908524 0.02111179
0003c0 41 e0 ae 3c b0 55 0c 3c 3f 05 35 ba 37 bd 1c 3d
       0.021347167 0.008565351 -0.0006905384 0.038266387
0003d0 73 44 8c 3c 07 2a 08 3c 74 81 92 3c ef 67 41 bc
       0.017122483 0.008310801 0.017883994 -0.011804565
0003e0 37 33 06 bd dd 66 a0 3d 75 cb 98 3c 01 4c 25 3d
       -0.032763686 0.078321196 0.018651703 0.040355686
0003f0 54 9e 9e bb 21 88 3d bc 46 58 29 3d 29 de 11 3d
       -0.0048406515 -0.0115681 0.04134395 0.03561226
