Model/Train_2/colorectal_segmentation_model (1).pth (torch, 603784 bytes, 7 tensors)

encoder.0.weight f4 [64, 3, 3, 3]
00000000: 2d47 b03c ba4a 2fbd 968e 57bd 8646 16bc
00000010: ae11 db3d aede 0c3e fb4d 393e 0f71 b5bd
00000020: 6dad fe3d 1303 c4bd 3595 17be 62d1 b5bd
00000030: 15c5 293e df04 39bd 3526 97bd 1afa 303d
00000040: 9bd3 253e d79e ed3d 7744 11be 651b 1f3e
00000050: d158 f0bd 21ad 45bd a31e 13be 96c7 febd
00000060: 905e 0b3e 7b9f 6b3b 97ae 0ebe 173e 4fbc
00000070: 91d2 f7bd 223c 01be d8dc 1cbe 9bb9 303d
00000080: 0927 713c a817 1dbd d96d c63d f5f9 113e
00000090: 9d8f dd3d 3d11 2f3e 654a 99bd 3979 7c3c
000000a0: af7c 01be 2183 223e 03dd 2d3a 2055 833d
000000b0: 7c24 2fbd 3cfb 6b3d 2bc5 f4bc 80bc 1335
000000c0: 09c7 5cbe 90b8 c2bd 8da5 5d3e 13ee 33bc
000000d0: 1c8e 7c3c 2714 7d3e 92c8 b83d ebf6 8a3d
000000e0: 2a5d 2cbd 6317 e93d a48a 253e 8d7a c8bd
000000f0: 8304 a63c adf8 193e be99 03be 7c09 103d
00000100: 729f a1bc ad3f 8d3d d53d 2bbe 56dc c13d
00000110: 6eec e73d 0ebb b6bd 49d7 30be 0f74 0ebe
00000120: 711a 9fbd 15e1 1bbe 6ea6 2abe 6efb b03d
00000130: 7f2b a73d 6c49 30bd 7873 a7bd ab03 0ebe
00000140: 9d7c c0bd a985 c63d 43be 86bb c4a2 9a3d
00000150: 1251 ebbd bddd 03be 609f b4bd 71f3 02be
00000160: 2b65 2c3e 5dcd 283e b642 4d3d 0bad ab3a
00000170: b2bd fa3d f319 4dbd a353 d6bd f97b 283e
00000180: 9f80 743c 5dfd 973d e0a3 18bd 23d1 8fbc
00000190: 6e27 3bbd 7c30 b2bd ba03 87be d5f2 58be
000001a0: a0f6 21bd be76 c1bc bdc2 343d 02fe 4d3e
000001b0: d083 533c 7e86 183e 8753 153e 2a02 643c
000001c0: 45d5 f93d 972a 9c3d 2652 a8bd 5384 dc3d
000001d0: 62ec 193e 8de5 26be ade6 553b ceff e5bd
000001e0: 8e75 39be 4259 32be 31f0 9bbd 28e1 28bd
000001f0: 0e71 88bd 6cb1 28be 6481 05be 9824 44be
00000200: 5153 b93d e2f2 1e3e 2b6c 263e cb16 bebd
00000210: 1a46 d2bc bcf7 5abe 7a1c bb3d ce75 32be
00000220: f261 d83d 9cef 73bd ab41 f93c 0e7b cabd
00000230: 4dc5 173e 37f6 073d f3b6 0c3e 7c0d 103e
00000240: 0838 b9bd 5557 153e e99e 4b3e e1f2 f9bd
00000250: c3d9 24be e023 12be ae84 43be 2507 50be
00000260: 2dfe 3a3d ae86 683d 93cc 1a3e e3b2 953d
00000270: 1935 d73c e96d 4dbe 89ac e2bb 6454 babd
00000280: a549 15bd f36b 6e3d 5ea3 8ebc c26d 823d
00000290: 6d06 7cbd 7805 f9bc fe51 1cbb e72a b0bb
000002a0: e215 10be 0b2a 203e 7543 cd3d 6534 f5bd
000002b0: fb8e 673c 4e3b 06be 7d70 c4bd a351 46be
000002c0: e313 9bbd 2d90 b73d ace4 e23c 4f6e 57be
000002d0: 88c5 14be 9936 e53d d85c 9fbd b12b 0d3e
000002e0: abba 0a3e b35f 9abd 8418 1d3d 601f c23d
000002f0: 0eb7 bcbd 3653 ccbd cf3d 013d 0ee5 163d
00000300: c878 183e 9361 69bd 1da7 1cbe 90f7 683b
00000310: 90cd 64be 7240 8e3d 85a4 bcbd a59d 103e
00000320: f266 b23c 9ffd 293c e8e2 f8bd 2e6b 92bd
00000330: 2d3d 4bbd de50 ae3c 3089 26be d73a 91bd
00000340: 649f 1c3e aa7a 16be 0884 3c3e df56 013e
00000350: e836 b4bd 64b0 383e 8742 f0bc 2756 30bc
00000360: 7ac6 85bc a011 b9bd c8a0 a03d d069 d53d
00000370: 05f3 b9bc 4f56 5cbd 95d8 5dbe 6615 d93d
00000380: d01c 403e c83f 89bc 31de e23d 1f81 583d
00000390: 2b66 ebbd c5db 2bbe 2c66 30be b586 1e3e
000003a0: a78d 0d3d 7856 6c3e 048f 3d3e 4b5c 98bc
000003b0: 9e72 7b3b bb7e 5ebe d2f6 55be 03f4 a43d
000003c0: ef00 aabd 1e77 bc3d c1c0 cebd ed29 24be
000003d0: ae3e 0bbe 829b 30be 247c 06be 4250 c7bd
000003e0: 0afd e4bd 15d9 303e 365a 2ebd fb08 20bc
000003f0: 4d5e 30be 387a f03c d042 073e ec05 003c
0.021518314 -0.042795874 -0.052626215 -0.009172088 0.106967315 0.1375682 0.18096153 -0.08859455
0.12435422 -0.09570899 -0.14803012 -0.08877827 0.16579087 -0.04517066 -0.07380334 0.043207265
0.16194002 0.11602562 -0.14186274 0.15537794 -0.117356904 -0.04826081 -0.14367156 -0.12440412
0.13610291 0.0035953212 -0.13933788 -0.012649081 -0.12100709 -0.12620595 -0.1531862 0.043145757
0.014718779 -0.03835264 0.096889205 0.14255507 0.10818408 0.1709642 -0.07484893 0.015409761
-0.1264522 0.15870334 0.00066323596 0.06412721 -0.042759404 0.057612643 -0.029879173 5.503607e-07
-0.21560301 -0.09507859 0.21645184 -0.010982054 0.015414741 0.24714719 0.09022631 0.06785377
-0.042081036 0.11381414 0.16166168 -0.09789 0.020265823 0.15036269 -0.12851617 0.035165295
-0.01972935 0.06896911 -0.16722806 0.09465854 0.11324392 -0.089223966 -0.17269625 -0.1391146
-0.07768715 -0.1522258 -0.1666505 0.086417064 0.08162593 -0.04303877 -0.08176321 -0.13868587
-0.09398768 0.096934624 -0.0041120364 0.07550576 -0.11490072 -0.12877555 -0.08819461 -0.12788178
0.16835468 0.1648459 0.05011245 0.0013097835 0.12243213 -0.050073575 -0.10465171 0.16453542
0.014923244 0.07421372 -0.03726566 -0.017555779 -0.0456919 -0.08700654 -0.2637003 -0.21186383
-0.03954184 -0.023616191 0.04413103 0.20116428 0.0129098445 0.14895055 0.14582644 0.013916532
0.12198881 0.07625311 -0.082187936 0.10767426 0.15031579 -0.16298504 0.0032638714 -0.112304315
-0.1811125 -0.17416862 -0.07614172 -0.04123035 -0.066621885 -0.16473931 -0.1303764 -0.19154584
0.090490945 0.1552234 0.162522 -0.09281691 -0.025668193 -0.21383566 0.09136291 -0.17427751
0.105655566 -0.05955468 0.03042682 -0.09886752 0.14821358 0.033193793 0.13741665 0.14067644
-0.0904389 0.14584096 0.19884838 -0.122045286 -0.16098695 -0.14271498 -0.19093582 -0.20315225
0.045652557 0.056769066 0.15117101 0.073095106 0.026270436 -0.20061459 -0.0069175404 -0.090981275
-0.036447186 0.058208417 -0.017411884 0.06368591 -0.061529566 -0.030398116 -0.0023852582 -0.005376208
-0.14070848 0.15641038 0.10022632 -0.11972884 0.01413321 -0.1310856 -0.09591768 -0.1936708
-0.075721525 0.08963046 0.02769693 -0.21038173 -0.14528477 0.11192054 -0.077813804 0.13786198
0.1354777 -0.075377844 0.038353458 0.094786406 -0.092146024 -0.09976809 0.031553086 0.036839537
0.14889824 -0.05697782 -0.15298124 0.003554795 -0.22344041 0.06945886 -0.09211067 0.14122637
0.021777604 0.010375409 -0.12152654 -0.07149349 -0.04961889 0.021278795 -0.1626327 -0.07091301
0.15295178 -0.1469523 0.18409741 0.12630795 -0.08799535 0.18036038 -0.029328598 -0.010762728
-0.016329993 -0.09036565 0.078431666 0.10420573 -0.022698889 -0.053793248 -0.2166465 0.105997846
0.18760991 -0.016754046 0.11077536 0.052857514 -0.11494096 -0.16783054 -0.17226475 0.15481074
0.03455892 0.2307986 0.18511587 -0.018598696 0.0038367878 -0.21728031 -0.20894936 0.08054354
-0.08300959 0.09202407 -0.10095359 -0.16031618 -0.13598129 -0.17246822 -0.13133293 -0.09732105
-0.11181076 0.1727031 -0.0425665 -0.009767766 -0.17223473 0.029355153 0.1320908 0.007813912

encoder.0.bias f4 [64]
00000000: d59a 89bd f058 f1bd 2825 9c3d e0c2 343c
00000010: 7852 aebd 63a4 d3bd 8f20 2f3e 6449 c33b
00000020: 91cb 4b3c b001 bebc e769 4d3c 94dd 8bbd
00000030: e3d0 313e 7048 d9bd 0b6e 13bd 1821 0abe
00000040: ffa8 edbd 23d2 c73c 87be 21be 047e e53d
00000050: 8904 e7bd 863d 343c 6469 06bd ed11 d33d
00000060: 13f9 5c3e 214a 11be 2583 0e3e 3fee b13d
00000070: 88d4 dbbc b4cc cdbd cce4 01be 35aa b63b
00000080: 32ca 43bc a0e8 213a a77e 2c3e 454e ffbc
00000090: 3609 ccbb bb0b 04bb 4d48 d23d 6d40 95bd
000000a0: 0df4 32bd be12 42be 8951 3bbd f9a4 48be
000000b0: b4bc 4ebe 2b1d 38be ae74 e7bd 8f04 d33c
000000c0: 69ca 50bc bf5b 69bd 3cf0 073e ed68 5a3e
000000d0: eeb2 5a3e 4c92 30bd 5d16 e53d f81b 433e
000000e0: db09 063e f93b ec3d d791 0b3e 4108 703c
000000f0: c718 33be 8170 bb3d 6985 33bb 210e 263d
-0.06718985 -0.117845416 0.076242745 0.01103279 -0.085118234 -0.10334089 0.17102264 0.0059596766
0.012438671 -0.023194164 0.012537456 -0.06829372 0.1736484 -0.106095195 -0.035993617 -0.13489187
-0.11604499 0.024392193 -0.15795337 0.11205676 -0.11280162 0.011000996 -0.032815352 0.103061534
0.2157939 -0.14188434 0.13917215 0.0868802 -0.026834741 -0.1004881 -0.12684935 0.0055744895
-0.011950063 0.00061763264 0.16845189 -0.031165252 -0.006226684 -0.0020148593 0.102676965 -0.07287679
-0.043689776 -0.18952462 -0.045732055 -0.19594182 -0.20189172 -0.17979877 -0.11301552 0.02575901
-0.012743571 -0.05697226 0.13275236 0.21329089 0.21357319 -0.04310827 0.11185906 0.19053638
0.13089697 0.115348764 0.13629852 0.014650405 -0.1748992 0.09152318 -0.002739275 0.040540818

encoder.2.weight f4 [128, 64, 3, 3]
00000000: e80a 8c3d 0909 9bbc 25c9 573d d6b7 113d
00000010: 2383 4abc d8a7 07bd 8159 a13c b36a 3cbd
00000020: db15 5bbc 2304 853d 1f11 45be ac58 a1be
00000030: 4e5e 0b3d 918f abbd c6d6 88be 7dd2 a93d
00000040: 47a5 4fbd cdb9 73be 3b4d 84bc 516a 89bb
00000050: 7b71 0c3d b8cf fbbc 2c29 53bd d4b7 8fbc
00000060: d8bd 00bd 18b1 13bd 3925 773b e509 93be
00000070: de7c 6ebe f45a a4be ce12 20be d026 cdbd
00000080: 980d 62be bc2c 07be 9eea 0bbe 584c 79be
00000090: 95b9 0cbc 82ac f8ba c10a 063d 52ce 8ebd
000000a0: b44e ddba 28a2 91bb 1e8b 72bd 34cb c43c
000000b0: bcb7 903c e2b2 c2bd 1b57 9dbd ae27 b8bd
000000c0: e998 2bbd 4e35 36bd d9a6 00bd 2d15 f7bd
000000d0: 727f 2bbd 93c0 82bd 8d84 3d3c 779a 863b
000000e0: 65e8 1d3c 30eb 27bd d09d ce3c 8a70 d73c
000000f0: a3ab b8bc d865 3cb9 4ad6 a73b 7f42 0fbd
00000100: fd97 abbd 23d6 87bd 82ca 02bd d987 91bc
00000110: dbf2 54bd 7861 76bd efa4 41bd 0385 95bd
00000120: 567c 253c 1309 46bd acf9 4abe 7efc bfba
00000130: 27e5 153c 9c20 0abe c541 b7bc 795d 96bc
00000140: 56ae 12be a6bb af3d 64cc 96bc 23ea 75be
00000150: 9550 a53d 620f 053d b7c3 3fbe 0dcd 3d3e
00000160: bf88 1b3c 8be9 d6bd c9a1 733d 32a2 b7bd
00000170: d6b1 62be d32b 093e 34b3 48bb 9fc4 d6bd
00000180: 7837 2a3e 35f7 dd3c 7a69 90bd 5556 59bb
00000190: d546 46bd c610 97bd ef8c a6bd e9d7 bcbb
000001a0: 3963 9d3b dda6 92bd 8de6 40bd 633d 05bd
000001b0: c9d3 6d3a 16af 2dbd 7009 aa3a 930a d33b
000001c0: e7f1 863c c97d e0bc a00c 25bd 6c45 013d
000001d0: a7cb 243d 243d 113e 3d45 b839 8101 31be
000001e0: 7490 b03d 3c4b 74bc 75cd 12be 9a65 ef3d
000001f0: ab10 e0bb 262c 89bd a613 eabd 97b4 2cbe
00000200: c8b8 ccbe a090 e03d 557b 90bd b942 83be
00000210: 8924 1f3e f42c 70bd d5d3 79be d3cd 893c
00000220: d6b4 aa3c ab83 daba 4b32 e53c 480f b63c
00000230: f63c 3ebc f2eb 1fbd 8beb ff3b 56aa 88bc
00000240: 29cb 91bd 3603 b6bd 88db d1bd 13a2 4dbd
00000250: e05d b6bd b01f e6bd b853 0cbe 2082 e4bd
00000260: 1b48 eabd 37ed 613c 1c5c 8abd 2f95 31be
00000270: 6f2e aa3d 540e 93bc 521a bbbd 3a72 113e
00000280: 87b9 c1bb d48f babc 5b1a 0abc 3225 1e3d
00000290: 3cdd 06bd fbf0 f8bc ab3f 75bb e866 92bc
000002a0: 76b9 5bbc d04d 553c e60b 653c 6f1b 3abd
000002b0: ea8a adbd 0d96 49be dc86 003d 43b4 c5bc
000002c0: 154b 8cbd bfc0 13bd 1b34 84bc 082d 2dbd
000002d0: 360c 063c 6677 49bd 2808 2abe 6132 623d
000002e0: 51ef 3dbd e6c5 43be 30eb 8839 e120 80bd
000002f0: a05e 53be 741e 7b3c 30bc fdbc ab01 edbe
00000300: b8d8 96bd d163 81bd 7a14 b7be 872b 84be
00000310: d1d9 66be fa9c dbbe 1b4f 9a3c d61e a0ba
00000320: 2b7b 67bc 567a 2abb f67f 80bc ccbe a7bc
00000330: 405f 4e3c 26da da3c a6cd cc3c d07e cf3b
00000340: 4359 36bd 52b0 dfbc f1a8 093d 56ca 6c3c
00000350: 1dea 2c3c 466c 3b3b bd70 c8bc 13e3 e0bc
00000360: cac4 2ebd 0bd3 7f3c b52c 833c 15f3 80bd
00000370: a71d c3bc 2dc6 1d3d c2bd 9fbd 43d4 4b3c
00000380: 014b bb3b a924 ad3c d3db 8cbd db79 02be
00000390: 8304 6f3d e3c6 333b 8721 c0bd c273 643d
000003a0: fcf3 fe3c da54 aabd 0c21 dc3c 6047 a33c
000003b0: 6a37 993c 80f6 5f3c 6381 403d 3400 2ebc
000003c0: e1b1 58bb a77d 933d a116 653d 19e2 ddbc
000003d0: 29a8 51bd 2077 2a3b 0de5 57bb 6bcf 89bc
000003e0: d946 0ebc 8864 18bd 30a7 27bd 1c4f ebbc
000003f0: b4f1 843d c83f 4abd 360f 22be 1988 063d
0.06838018 -0.018925207 0.05268206 0.03557571 -0.012360367 -0.033119053 0.019696 -0.046000194
-0.01337191 0.0649493 -0.19244812 -0.31512964 0.034025483 -0.083769925 -0.2672636 0.082921006
-0.05069473 -0.23801346 -0.016150108 -0.004193582 0.03428791 -0.030738696 -0.051552936 -0.01754371
-0.03143105 -0.03605756 0.0037711395 -0.28718486 -0.2328982 -0.32100642 -0.15632173 -0.100171685
-0.22075498 -0.13200659 -0.13663718 -0.24345529 -0.008589168 -0.001897231 0.0327251 -0.06972946
-0.0016884417 -0.0044443794 -0.059214704 0.024022676 0.017665736 -0.095067754 -0.0768263 -0.08991943
-0.041893873 -0.04448443 -0.03140912 -0.12064586 -0.04186959 -0.06384387 0.011567247 0.004107769
0.009637927 -0.040995777 0.025221735 0.02629878 -0.02254278 -0.00017967017 0.005121981 -0.034975525
-0.08378599 -0.0663264 -0.031931408 -0.017764973 -0.051989418 -0.060151547 -0.047276434 -0.073007606
0.010100445 -0.048348498 -0.19821805 -0.0014647392 0.009148872 -0.13489002 -0.022370229 -0.018355118
-0.14324316 0.08580713 -0.018408008 -0.24015097 0.080720104 0.032485373 -0.18727003 0.18535252
0.009493052 -0.104937635 0.059480462 -0.08966483 -0.22138152 0.13395624 -0.0030624392 -0.10486721
0.16622722 0.027095417 -0.07051368 -0.003316303 -0.048407394 -0.07376246 -0.0813235 -0.005763043
0.004803088 -0.07160733 -0.04709487 -0.032529246 0.0009072391 -0.042403303 0.0012972783 0.0064404695
0.01647277 -0.027403729 -0.040295243 0.031560346 0.04023328 0.1418348 0.000351468 -0.1728573
0.08621302 -0.014910515 -0.14336188 0.11689301 -0.0068379245 -0.06697874 -0.11429529 -0.16865765
-0.39984727 0.10965085 -0.07054774 -0.25636843 0.15541281 -0.05863662 -0.24397214 0.016821777
0.020838182 -0.001667132 0.027978083 0.022224084 -0.011611214 -0.039043374 0.0078100613 -0.016682785
-0.07118828 -0.08887331 -0.102469504 -0.050203394 -0.08904624 -0.11236513 -0.13703811 -0.11157632
-0.11439534 0.013789467 -0.0675585 -0.17342065 0.08309638 -0.017951168 -0.091358796 0.1420373
-0.005912009 -0.02277366 -0.008429135 0.03860969 -0.03292583 -0.030388346 -0.0037421982 -0.017871335
-0.013410917 0.01301904 0.013979888 -0.04543632 -0.084737614 -0.19686146 0.031378612 -0.024133807
-0.06850258 -0.03607249 -0.016138127 -0.042279273 0.008181622 -0.049186133 -0.16604674 0.055223826
-0.046370808 -0.19118461 0.0002611517 -0.06256271 -0.20641565 0.015327085 -0.030973524 -0.46290335
-0.073655546 -0.063178666 -0.3575781 -0.2581446 -0.22544028 -0.428932 0.018836549 -0.0012216221
-0.014128487 -0.002601286 -0.015686017 -0.020476721 0.012595952 0.02671535 0.025000405 0.006332256
-0.04451872 -0.027305756 0.03360838 0.0144525375 0.010553864 0.0028598472 -0.02446782 -0.027452027
-0.04266814 0.015614281 0.016012529 -0.06296364 -0.02381785 0.038519073 -0.07799865 0.012440744
0.0057157283 0.021135645 -0.06877866 -0.12741797 0.058353912 0.0027431778 -0.09381395 0.055774458
0.0311222 -0.083169654 0.026871227 0.019931495 0.018703181 0.01366961 0.046998393 -0.010620166
-0.0033065008 0.07201701 0.055929784 -0.02708535 -0.05118576 0.0026010945 -0.0032942921 -0.016822537
-0.008683884 -0.03720525 -0.040930927 -0.028724246 0.06491414 -0.049377233 -0.15826115 0.032844637

encoder.2.bias f4 [128]
00000000: 9f79 6fbc d85f 0c3d 7849 25bd 77e9 aabc
00000010: 2558 603c 51bb 863c 1f67 24bb 2b5c 3bbd
00000020: 9eb5 8a3d f6d9 88bd 6126 13bd 0aff 0c3d
00000030: b972 54bd 4c92 1abc 90da 8a39 f807 5b3d
00000040: 8d75 e3bb 02de 593d 97b4 b0ba 861d 7a3d
00000050: 6259 353d 9c4f 41bb c526 543d 4aef 50bc
00000060: 5c26 9ebb 9419 db3c a7c9 973d f0cf 6c3d
00000070: 4206 38bd 5dcf a03b afb8 e5bc bc92 afbc
00000080: dce7 febc 5c8f 51bc 6d6c 913d 883f 3cbc
00000090: 5626 e83c 7084 963d 188d 493d 50fd 133c
000000a0: 4a7d a1bb 2c69 31bd 20c4 2bbd 747f 193d
000000b0: 44a6 443c 2159 5ebd e4f9 a63d 6898 17bd
000000c0: c81f 7a3d c480 b03b a8a8 0bbd 060d 883d
000000d0: a736 263d 1e41 67bc 3054 babc e843 adbc
000000e0: 918d b23c f21d 963d 9d4c 973d 746f 853d
000000f0: f56e 39bd a599 9fbc 6b60 c63c eff0 1bbd
00000100: 398e 84bb 3f58 823c 388a 903d 9ede 57bc
00000110: 8985 d139 1b2f 913d 5669 bf3c 1f41 30bd
00000120: dd2d d4bc 52ef 973d c7a2 833d b664 df3c
00000130: 1f24 a73b fbec ac3a 8f4a 7b3d 7b9e e93c
00000140: f0f4 d13d a1d4 71bc 5078 84bc 71d2 b5bc
00000150: e11a 833d d289 89bd 2069 c9bc ea90 7fbd
00000160: 758d b1ba 66b0 87bd 3c7e e03b 7e64 c2bd
00000170: fac8 22bd b5fd 803d 89b0 60bd 828d 9b3c
00000180: d2ed a7bc 23ea 4bbd ee7c 3bba a575 063d
00000190: 73a5 69bd d8ab b2bb 6948 9f3b 9d4a 74bc
000001a0: ef02 9bbd 1c6d 6a3d 4d36 c1bc ac02 0ebd
000001b0: 4507 7ebd 301e 823c 62e6 38bd f381 d1bb
000001c0: eece 8d3b c135 76bd 23d3 41bb 4908 50ba
000001d0: 8f64 593d e171 173d db4c a0bc d38a 9d3c
000001e0: 13e8 443d 2965 873d dce8 4f3d c35d c8bc
000001f0: c1e0 583c 284e 9f3d ec3f a03c f65a 6bbc
-0.014616399 0.03427109 -0.04035327 -0.020863278 0.01369289 0.016446741 -0.002508588 -0.045742195
0.06772922 -0.06682198 -0.035925273 0.03442291 -0.05186722 -0.009434294 0.00026484253 0.053474396
-0.0069415034 0.05319024 -0.0013481554 0.061063312 0.044274695 -0.0029496914 0.051794786 -0.012752363
-0.00482635 0.026745595 0.07411509 0.057815492 -0.044927843 0.004907532 -0.028042166 -0.021432273
-0.031116419 -0.012790527 0.07100759 -0.011489756 0.028338592 0.07349479 0.049206823 0.009032562
-0.0049282657 -0.04331319 -0.041935086 0.037475064 0.012002531 -0.05428422 0.081531316 -0.03701058
0.061065465 0.005386444 -0.03409639 0.06643109 0.040579464 -0.014114646 -0.022745222 -0.021150544
0.02179602 0.0732993 0.0738766 0.065153986 -0.045271832 -0.019482443 0.024215898 -0.03807157
-0.0040452746 0.01591122 0.07057613 -0.013175635 0.00039963078 0.07089063 0.023365658 -0.043030854
-0.025900776 0.074186936 0.06427532 0.027269702 0.0051007415 0.0013193184 0.0613504 0.028517952
0.10251796 -0.014760167 -0.01617065 -0.022195073 0.06401611 -0.0671574 -0.02458626 -0.06239406
-0.0013546186 -0.06625442 0.006850986 -0.094918236 -0.039742447 0.06298391 -0.054855857 0.018988375
-0.020499144 -0.049783837 -0.00071521 0.03282704 -0.05704255 -0.0054526143 0.004860927 -0.014910367
-0.07568919 0.05723296 -0.023585463 -0.034670517 -0.06201865 0.015883535 -0.045141585 -0.006393665
0.0043276465 -0.060109857 -0.002957531 -0.0007935805 0.053074416 0.036973838 -0.019567898 0.019231236
0.048072886 0.06611092 0.05075918 -0.024458772 0.013237179 0.07778579 0.01956173 -0.0143649485

decoder.0.weight f4 [64, 128, 3, 3]
00000000: f69d 3f3d be8c 903d 9652 3f3d e10a 533d
00000010: 5c34 363d f96e f33c a959 9a3d 74df 683c
00000020: 1b96 a83c 6c2c b4bb e3e1 ad39 890b 43bc
00000030: 5a43 463c 1b6e 9bbc dbf4 15bc 2e3d 133d
00000040: c7c6 fd3c ac03 563c 600b 22bd b4a3 00bc
00000050: 7320 963c aa69 cf3b e617 edba 9604 8ebc
00000060: fed5 5f3c 0b57 c1bc b469 a8bc fb2a b0bc
00000070: 82b3 503c 942f 053d cd5f 093d cae3 96bc
00000080: 2d60 b0bc 0407 063d 601d dc3c 7030 603b
00000090: 3cda d7b8 90b2 4cbc 2d3e 063d 9d24 a5bc
000000a0: e954 2dbd 93d9 62bd 2d9a ed3c 88fe 213d
000000b0: 5d76 71bc 5846 b6bc 428e dc3c 9619 363c
000000c0: 46f8 40bc 8fec 9fbb 5625 d53c 47fb c43b
000000d0: 7adc 5c3c 1598 88bc 6996 d9bc 4e9d c5bc
000000e0: 3893 e9bb a275 c4bc 36a2 eabc 66ef c93b
000000f0: dee8 8bbc 396c 23bd abc7 683c 77f7 873c
00000100: 6a1a 7b3b c143 903b ae02 b2bc 9c3d c4bc
00000110: d810 183c 0354 b4bb 9dc1 c83c d015 083c
00000120: 7659 323d a6e7 09bc 6e7c 0d3d 127f 003d
00000130: cc1e 1dbc d59c fbbc bcab 923d 3c9e 913c
00000140: 2671 71bb acaa 2dbb 50aa 603c f060 3a3c
00000150: 60d0 df3b d585 94bc f613 e5bc 7bf8 8abc
00000160: 02b8 8a3a 6d60 f0bb d06d d03a 4b2e 46bd
00000170: 5d41 13bd b4e8 94bc 2305 32bd b367 44bd
00000180: 7fc6 4fbd 7d62 38bd 2e08 47bd e8e2 4b3c
00000190: 252a ae3c f15d 27bc e0d3 783c a51a b63c
000001a0: a048 67bb 3ee5 a33c 27a4 883c 4cfe 8e3c
000001b0: e1b8 293a 0484 e3ba 3ff7 bb3b c40c 6cbc
000001c0: 3d2d 90bc 8fb9 45bc c171 a73c 2945 9ebb
000001d0: 3ad8 e73c ca01 16bd e8e0 71bc 3fe0 03bd
000001e0: befa 62bc 1b33 bcbc fea6 1abd a14c 7abc
000001f0: a53e d9b9 48b0 1abd 75fc c3bb ae47 c33b
00000200: 3591 1a3c c1b2 00bd f293 d83b fbe0 c7bc
00000210: 1e4f db3c 9cc7 77bc 5826 b03c e6b6 be3a
00000220: f581 8b3c 3b7f b53b 367c 6e3c 2f86 3dbc
00000230: b6df b43c cc33 583d 0295 d9bb 701f f43c
00000240: 1b92 ab3c c72c d63b ff6e 623b 8f28 0f3e
00000250: 5c45 1f3e 426f 0f3e 5316 193e 21cd 003e
00000260: a274 823d f024 bc3b ee3f 88bc 12af 38bc
00000270: e31b b13c 45b2 88bc fd44 973c b258 d83c
00000280: cd8c 2a3d 480b 413b 72e3 17be 5d0d 09be
00000290: f98d 18be 4d23 f8bd fb82 8ebd 82bf fbbd
000002a0: 51c7 3abe 8546 11be 9b94 0ebe f7ab 87ba
000002b0: 0c35 0c3d 8b53 a8bb 050d 15bc c40a 91bc
000002c0: e4db ca3c 1815 243d 79cf bf3c ca43 8d3c
000002d0: c040 a9b9 cb53 b73c e42b 3bbc 3293 973c
000002e0: ac5b e23c 107a f03b 24f9 c63d c4e5 183c
000002f0: 18e5 453c 5c11 023d ff31 c33c 5046 cc3b
00000300: 32dd 483c 7a23 d23c 1889 0d3c da7d 103c
00000310: c2b2 eb3c 7f26 7f3c a872 e53b 79a3 3f3c
00000320: 2228 de3b 7c5f ba3c 27a0 e53b 90a2 02bd
00000330: ecc7 a03c 865c a4bc 871b 893c 6cb0 b6bc
00000340: 0164 993c 8ebe ce3c 1b19 b03c f206 77ba
00000350: 7474 d63c f4b9 97bc 3a9a 3bba daf4 153c
00000360: 24d5 903c 607a 2d3d 022d 1a3c a860 a53c
00000370: e1c5 f03c 9950 803d a188 773d fbb6 2f3d
00000380: 45c0 273d 5c3c 663c 3ce0 4b3b ec7d b1bc
00000390: 072f 4d3c 28d3 f03a 1654 ae3c 0365 10bd
000003a0: 776c 05bd fb26 40bc 488c 693c 8168 9e3c
000003b0: 8d0c c43c 91ae 2e3d 4f60 ba3c 5a3b 393d
000003c0: 9c76 563d 5120 5b3d 26bf 163d 7d3f 1a3d
000003d0: b877 413d 3238 9f3c 7282 9fbb f375 c9bb
000003e0: 2a9e a5bc 62b7 473c fec8 463c 579a b73c
000003f0: cd0f f33b 9c2a 34bc 5058 9dbc f13e 30bb
0.046781503 0.070580944 0.04670962 0.051524047 0.044483528 0.029716002 0.075366326 0.014213432
0.020579388 -0.0054984596 0.0003316543 -0.011904606 0.012101019 -0.0189734 -0.009152616 0.035947017
0.030978573 0.013062399 -0.03956163 -0.00785153 0.01832602 0.006329735 -0.0018088787 -0.017336171
0.01366186 -0.023601076 -0.020558216 -0.02150487 0.0127381105 0.032516077 0.03353863 -0.018419165
-0.021530235 0.032721534 0.026869476 0.0034208558 -0.00010292648 -0.0124937445 0.03277414 -0.02015906
-0.042317305 -0.055383276 0.02900418 0.03954938 -0.014737693 -0.02225034 0.026923303 0.011114499
-0.011777943 -0.004880495 0.02601878 0.0060114 0.0134803 -0.01667408 -0.026560979 -0.02412286
-0.0071281455 -0.023981873 -0.028641801 0.0061625717 -0.017078813 -0.03989813 0.014207761 0.016597493
0.0038315305 0.004402608 -0.021729793 -0.023955159 0.00928136 -0.005503179 0.024506385 0.008305982
0.043542348 -0.008417046 0.034542494 0.031371184 -0.009589862 -0.030714432 0.07161662 0.017775647
-0.0036841123 -0.0026499433 0.013712481 0.011375651 0.00683026 -0.018130222 -0.02796362 -0.016964188
0.0010583403 -0.0073357136 0.0015901867 -0.048383992 -0.035951007 -0.018177368 -0.04346193 -0.047950458
-0.05072641 -0.0450158 -0.048591785 0.012444235 0.02126033 -0.0102152685 0.015187234 0.022229502
-0.003529109 0.020006772 0.016679836 0.017455243 0.00064743875 -0.0017358069 0.005736261 -0.01440734
-0.017599696 -0.012068166 0.020439984 -0.004830022 0.028301347 -0.0366228 -0.0147630945 -0.03219628
-0.013853727 -0.022973588 -0.037756912 -0.015277059 -0.0004143614 -0.03776577 -0.005981023 0.0059594726
0.009434034 -0.031420473 0.0066094333 -0.024399271 0.026771124 -0.015123274 0.021502659 0.0014550358
0.017029742 0.0055388487 0.014555981 -0.011567636 0.02207933 0.052783772 -0.0066400776 0.029800147
0.020943692 0.0065360996 0.0034551022 0.13980316 0.15553802 0.14007285 0.14949922 0.1257825
0.06369902 0.005741708 -0.016632047 -0.011272209 0.021619743 -0.016686568 0.018465513 0.02640948
0.041638184 0.0029456187 -0.14832857 -0.13384004 -0.14897908 -0.12116108 -0.06958576 -0.122923866
-0.18240096 -0.14187057 -0.13923876 -0.0010350932 0.034230277 -0.005136912 -0.009097342 -0.017705329
0.024763055 0.04005918 0.02341436 0.017244238 -0.00032282434 0.022378823 -0.011424039 0.018502805
0.027631603 0.0073387697 0.097154886 0.009332124 0.012078546 0.031754836 0.023827551 0.006233968
0.012259768 0.025651682 0.008638643 0.008819068 0.028771762 0.015573143 0.0070021935 0.01169669
0.0067796865 0.022750609 0.007007617 -0.031893313 0.01962658 -0.02006365 0.016736759 -0.022300921
0.018724443 0.025237348 0.021496346 -0.0009423337 0.026178576 -0.018521287 -0.00071564654 0.009152615
0.017679758 0.042353034 0.009410145 0.02018769 0.029391231 0.06265373 0.060433034 0.042899113
0.040954847 0.014052477 0.0031108996 -0.02166649 0.012523419 0.0018373476 0.02128033 -0.035252582
-0.032574143 -0.011728044 0.014254637 0.01933694 0.023931766 0.04264695 0.022751002 0.045222618
0.05235921 0.053497616 0.036803387 0.037658203 0.047233313 0.019435976 -0.004867845 -0.006148094
-0.02021702 0.012189718 0.012132881 0.022412462 0.007417655 -0.010996487 -0.01920715 -0.0026892985

decoder.0.bias f4 [64]
00000000: 463d 143d adb8 7d3d 7632 ae3d 532a 3bbd
00000010: ef5d 163d f1c5 153d 14e8 b3bb 5aab 453d
00000020: dead 12bd c59a 373d 0b0e 903c e669 843d
00000030: 9d6b 2b3d 5043 5a3d e567 5f3d 3f17 d73d
00000040: 1b93 0cbd d6be 6c3c fc5a ca3b 3388 103d
00000050: 24e5 ae3d cf44 3c3d 2f0f 843d 7d3f eb3a
00000060: 3bf0 9f3d 45e6 743d c43c fd3c 1cde 083d
00000070: 7657 043e 471a b63d 723f 233d cd44 4a3c
00000080: 1a52 803c e617 d63a fc7b 0c3d f78a 253d
00000090: 3daf ec3c d94d 843d 3414 0abd 16f9 8a3d
000000a0: 7160 cf3d 3cfe 373d 8902 aebc 5a6a 053d
000000b0: 2958 7b3d a147 7ebc b5fb 823d 77c3 833d
000000c0: 18f9 0a3c b466 b13d ceaa a43d 7a8e f33c
000000d0: 7e72 6abd c785 693d 618d f43d 1d4f 323b
000000e0: 9147 f73c 7642 30bc 7215 9d3d 9e45 543d
000000f0: a543 c33d e46f 1e3d 9420 d83d aef7 edbc
0.036191247 0.0619437 0.085057184 -0.04569466 0.036710676 0.036565725 -0.0054903124 0.048259117
-0.035810344 0.044825334 0.017584821 0.06465511 0.041850675 0.05328685 0.05454244 0.10502481
-0.03431998 0.014449796 0.006175397 0.03528614 0.08539799 0.04596406 0.064482085 0.0017947998
0.07809492 0.059789915 0.030912764 0.033414945 0.12923989 0.08891731 0.039855428 0.012345505
0.01566415 0.0016334027 0.03429793 0.04041573 0.028892154 0.06460161 -0.033710673 0.067857906
0.101258166 0.04492019 -0.021241443 0.032572128 0.061363373 -0.015520007 0.063956656 0.06433766
0.00848224 0.08662167 0.08040391 0.029731024 -0.057238095 0.057012346 0.119410284 0.00272078
0.030185493 -0.010758033 0.07670106 0.051824205 0.095343865 0.038680926 0.10553089 -0.029048767

decoder.2.weight f4 [1, 64, 3, 3]
00000000: b876 c83c c840 963c c88a c53c 1a12 23bc
00000010: 0fb1 653c 3e41 3dbd 8b16 9c3d 8898 193d
00000020: cdbe b43c 86d9 d7bd b585 27bd 3373 8cbc
00000030: a525 0dbd de9b 133b e599 58bc ec57 c4bd
00000040: d7e7 a33c 263a b4bc df38 8fbd a6fc 7cbd
00000050: 7d47 efbc 6c18 f7bc 64b8 f3ba 6247 7ebd
00000060: ff28 b3bd 34ee 38bc daff fabd 2a0a 4cbc
00000070: e0be 0c3d 56d7 dc3c 8d87 5b3c 20ca b9bb
00000080: e195 873c dea2 fc3c 7361 dcbb b67e b239
00000090: b787 9b3d 493e 3abb 9b0c 673d 3ea6 3d3d
000000a0: 936d 06bd f1a2 043d 7a05 2f3d a329 d73b
000000b0: a24f fbbb 3a7f ccbd e425 1dbd fbf0 db3c
000000c0: fa31 00bd adbd b9bd e22f 60bd 7570 0abd
000000d0: 8e50 b3bd 8532 fbbc 541a 6e3c 750d dbbd
000000e0: aa2f 4dbd 6249 f4bc 3e7a f1bd e01c aabc
000000f0: 4695 f33c ff43 7dbd 22bc 8dbd c516 c0bd
00000100: b32a 023c 00fa abbc a362 49bd f44b 813d
00000110: b692 013b 007e 12be 1e7d 38bc d402 513c
00000120: 97f9 87bc d163 b83c 1c1c 023d c15d d2bc
00000130: fdc8 6e3c eca9 1d3d 0c01 1f3c 57ff cebc
00000140: 47a5 08bd 851d 1d3d fcf4 10bd 2162 8d3d
00000150: 013a 9bbc 286f 8c3c cd52 ac3c 247b 563d
00000160: 6284 2a3d 07b4 8e3d 20d4 b63d e192 a43c
00000170: d692 c73d ea3d df3d a0cb 403d 910e be3d
00000180: a362 5c3e 89c2 f63d 1f37 123e 8e16 113e
00000190: 576b d93d 5268 9c3d f9b7 0f3d 64ff debb
000001a0: dd8c b3bb 83a2 d3bd 5825 afbd 9805 e7bd
000001b0: 3e1b b53b d1e9 133c 878d d73d aa52 8f3c
000001c0: 9656 45bd 4bba 8cbc 1189 78bd d675 a1bc
000001d0: 6f63 be3d 5b7c b23d 536b 093d a85b 423d
000001e0: 67a2 b43c 49ed 463c 4cf2 873c c0e3 993d
000001f0: 06b1 dc3c 7ffa 9a3b 87ef ed3d 8307 173d
00000200: b767 803d 942b 24ba 180c a9bc fce6 2c3c
00000210: b626 d43c 6855 96bb b8d8 09bd 08ae 0bbd
00000220: b2eb b83d 9002 3b3e 84a0 89bd 7c6b 2c3d
00000230: 47ed 393d 13a0 3dbe 794a a2bd 56ef 29bc
00000240: 33ee e73b a061 ce3b 9273 a63c d85c 323b
00000250: f5b8 0d3d a7f2 fdbc b3d7 8abc 935d 93bc
00000260: fb44 8dbc 8426 153e b7c9 a13d 24e5 153d
00000270: 5076 a43d 526d 2a3d 2812 153c 0f86 a53c
00000280: b6b2 80bc 4943 9b3c c085 5dbd a810 4e3c
00000290: 205d d53d 0bc2 3a3a 2f64 5cbc 1b4a 2e3d
000002a0: 05cb 9fbd 95de 41bd 385f 823c 29c3 7e3c
000002b0: f129 593d 02d9 a6bd c6a5 b83d d7fe 093d
000002c0: bd56 3dbd 87a2 553c 8a7c 763c 3f2f edbd
000002d0: 7f18 d8bd 110b 5cbd d2ea b3bd 8203 87bc
000002e0: 1c96 5c3d 3863 9ebb 08ba 44bd 4486 ed3a
000002f0: 6cf7 bcbd 2a31 583d 3930 8abc f72f 983d
00000300: 921c 42bb 18b0 2bbc 3344 423c 7cff 703d
00000310: ef3e 443d d992 6c3d bc6d 5bbd d573 74bd
00000320: febf a1bd 43db 493c 203c a1bc 3e61 4abd
00000330: 0365 91bd f5fd a0bd 64bc adbd 291e 383c
00000340: 73fe 4a3d 88a0 c93c c6ad 48bc 3185 25bd
00000350: eb1b 04bd 456f 363c 9a7c af3c 35aa 4c3d
00000360: 4996 e5bd fab3 cfbb dce4 38bd be74 a8bd
00000370: 296f 0cbd 2a10 6d3d dbda 8b3d 47c0 053d
00000380: 15c3 273e 9f29 e4bb 82a1 0cbc 06de 533d
00000390: 1365 9c3c 2772 aa3c e70b 9c3c d74d 8a3d
000003a0: d236 0ebd 5bcb 803d 7c0b ae3d 5f0e 373d
000003b0: bc65 903d 94bb 6abc b668 f4bc 3cb2 01bc
000003c0: a948 423d 161f d53c d6bb 2e3d 55f3 2c3d
000003d0: e01c 333d 327c 09bc c426 fb3c 962b 85bc
000003e0: 48a5 073d 03d7 373d cb6f 85b9 d7e3 243d
000003f0: 6a82 33be b28a 91bd c615 cebd 6105 9abd
0.024470672 0.018341437 0.024114028 -0.009953046 0.014019265 -0.046204798 0.07621487 0.03749898
0.022063637 -0.10539536 -0.040898997 -0.017144775 -0.03445973 0.0022523324 -0.013220285 -0.09587082
0.02000801 -0.022000384 -0.06993269 -0.06176438 -0.029208893 -0.030163012 -0.0018594381 -0.062079795
-0.08748054 -0.011287261 -0.12255831 -0.012453595 0.03436172 0.026958149 0.013399017 -0.005669847
0.01655096 0.03083938 -0.006725484 0.00034045213 0.07594245 -0.0028418473 0.056408506 0.04630112
-0.032819342 0.032381956 0.042729832 0.006566243 -0.007669405 -0.09985204 -0.038366213 0.026848307
-0.03129766 -0.09069381 -0.054733165 -0.033798654 -0.08755599 -0.030663738 0.014532644 -0.10695926
-0.050094284 -0.029820148 -0.11790894 -0.020765722 0.029734265 -0.061832424 -0.06920649 -0.09379343
0.007944751 -0.020993233 -0.049166333 0.06313315 0.0019771284 -0.14305878 -0.011260299 0.012757022
-0.016598506 0.022508534 0.03176509 -0.025679471 0.0145742865 0.03849213 0.009704839 -0.02526824
-0.033360746 0.03835823 -0.035389885 0.06903482 -0.018948557 0.017142847 0.021035576 0.05236353
0.041630156 0.06967931 0.089271784 0.020089569 0.097448036 0.10900481 0.047069192 0.09280122
0.21522002 0.120488234 0.1427884 0.1416876 0.106161766 0.07637085 0.03508756 -0.0068053473
-0.0054794387 -0.10333731 -0.08552045 -0.11280364 0.005526929 0.009027914 0.10525041 0.017495472
-0.048178278 -0.017178675 -0.06067759 -0.019709509 0.09296309 0.08715125 0.033549618 0.04745069
0.022050096 0.012141534 0.016595028 0.07514143 0.02693988 0.0047295685 0.11617952 0.036872398
0.06269782 -0.0006262597 -0.02063565 0.010553118 0.025897365 -0.004587818 -0.033653945 -0.034101516
0.0902933 0.18262696 -0.06720069 0.042094693 0.0453923 -0.18518095 -0.07924361 -0.010372004
0.007077956 0.006298259 0.02031878 0.0027215984 0.034600217 -0.030999495 -0.016948557 -0.017988956
-0.017244807 0.14565474 0.07899802 0.03659548 0.08030379 0.041608162 0.009098567 0.020205526
-0.015710216 0.018952983 -0.054082632 0.012577213 0.10418153 0.00071242516 -0.01345162 0.04255114
-0.07802395 -0.04733141 0.015914544 0.0155494595 0.053018514 -0.0814686 0.09015994 0.0336903
-0.0462253 0.013039238 0.015044341 -0.11581277 -0.10551547 -0.05372149 -0.08785023 -0.016481165
0.053854093 -0.004833605 -0.048028976 0.0018121679 -0.092268795 0.05278126 -0.016868697 0.074310236
-0.002961908 -0.010478996 0.01185708 0.0588374 0.04791158 0.057757232 -0.053571448 -0.05968078
-0.07897948 0.0123203425 -0.01968199 -0.049409144 -0.070993446 -0.078609385 -0.08483198 0.0112376595
0.049559068 0.02461268 -0.012248462 -0.040410224 -0.032253187 0.011134927 0.02142172 0.04996701
-0.11210305 -0.0063385936 -0.045140132 -0.08225392 -0.034285698 0.057876743 0.06828853 0.032654073
0.16383012 -0.0069629694 -0.008583428 0.05172541 0.019091165 0.020806385 0.019048644 0.06753128
-0.03472025 0.06288787 0.08498284 0.04469144 0.07050654 -0.014326949 -0.029835086 -0.00791603
0.047432575 0.0260158 0.042659603 0.042224247 0.04372871 -0.008391427 0.030658133 -0.016256135
0.03311661 0.044882786 -0.0002545103 0.040256348 -0.17530218 -0.07106532 -0.10062747 -0.07520557
