Model/Train_4/colorectal_segmentation_model (3).pth (torch, 603784 bytes, 7 tensors)

encoder.0.weight f4 [64, 3, 3, 3]
0	0xbdb37f16	-0.08764474
1	0xbdd8b104	-0.10580638
2	0x3dbc1c3e	0.09185074
3	0xbe669159	-0.22516383
4	0xbcd6888e	-0.026188161
5	0x3e18ff5d	0.14941163
6	0x3e0347ba	0.1282033
7	0xbda20434	-0.07910958
8	0xbd468cfd	-0.0484743
9	0xbdc08f80	-0.094023705
10	0xb993cd33	-0.0002819091
11	0xbbcd535b	-0.0062660403
12	0xbcd1af88	-0.025596395
13	0xbd527adc	-0.0513867
14	0x3e354f6f	0.17706083
15	0xbe67153c	-0.22566694
16	0x3d04b382	0.032397754
17	0x3e517276	0.2045382
18	0xbe720e65	-0.23638304
19	0xbc38c026	-0.0112762805
20	0xbd893f39	-0.06701512
21	0x3d621ab6	0.055201255
22	0xbd0283fa	-0.031864144
23	0xbe3e4518	-0.18581045
24	0x3d4f556b	0.05061857
25	0xbc851b14	-0.016248263
26	0x3e344c03	0.17607121
27	0xbddd6fa8	-0.10812312
28	0xbdd19b8f	-0.102347486
29	0xbe361f63	-0.1778541
30	0xbd8e8e3a	-0.06960721
31	0xbdb9d8fd	-0.0907459
32	0x3d1ced78	0.038312405
33	0xbcb1b230	-0.021691412
34	0x3e07f537	0.13277136
35	0x3e247e79	0.1606387
36	0x3d7f49f0	0.06232637
37	0xbd20ecc4	-0.039288297
38	0xbd86ed20	-0.06588197
39	0x3e245951	0.16049697
40	0xbd400173	-0.046876382
41	0x3d598b36	0.053111278
42	0xbd60007c	-0.054687962
43	0xbdde33a3	-0.10849693
44	0xbd8499ad	-0.06474624
45	0x3e07cb2d	0.13261099
46	0xbde078a4	-0.109605104
47	0xbd8f4051	-0.06994689
48	0x3e098d4e	0.1343281
49	0xbdecc91d	-0.11561797
50	0x3d16d092	0.036820002
51	0x3e3e7b8e	0.1860182
52	0xbd29385a	-0.041313507
53	0x3e0242a6	0.12720737
54	0xbdc372ac	-0.09543356
55	0xbdec4b96	-0.115378544
56	0x3cebd55a	0.028788257
57	0x3d96fecb	0.07372817
58	0xbd0d6fde	-0.034530513
59	0x3e448c42	0.19194129
60	0x3e467248	0.19379532
61	0x3d9d3a8a	0.07677181
62	0xbdb451eb	-0.08804687
63	0x3da4d569	0.08048517
64	0xbd43d750	-0.04781276
65	0xbda15ddc	-0.078792304
66	0xbe002977	-0.12515818
67	0xbe303d85	-0.17210968
68	0x3da26f52	0.07931389
69	0xbdbaec39	-0.09127087
70	0x3dc7bcda	0.097528175
71	0x3e2a3bb0	0.16624331
72	0x3e340c91	0.17582919
73	0xbb5e86e2	-0.0033954908
74	0x3d054df5	0.03254505
75	0xbe4c3863	-0.19943385
76	0xbe610a29	-0.21976532
77	0x3e0a20eb	0.1348912
78	0xbd25f86d	-0.04052012
79	0xbdfdc583	-0.12391188
80	0x3e06465c	0.13112777
81	0x3d80acce	0.0628296
82	0xbd5ebe06	-0.05438044
83	0x3d57df08	0.052702934
84	0xbcd888e4	-0.026432462
85	0xbe23a859	-0.15982188
86	0xbe03e129	-0.1287886
87	0xbd8eaca5	-0.06966523
88	0xbdb64ca7	-0.08901339
89	0x3e02d081	0.1277485
90	0xbe3e403e	-0.18579194
91	0x3ddc2961	0.1075008
92	0xbde5865e	-0.11207269
93	0xbe09d07b	-0.13458435
94	0xbe3d484b	-0.18484609
95	0x3c11dccd	0.008902741
96	0xbdf3d98b	-0.119067274
97	0xbdac9820	-0.08427453
98	0xbdf96648	-0.12177712
99	0xbd0ec1d7	-0.03485283
100	0xbd9161c1	-0.07098723
101	0x3c823b55	0.015897432
102	0x3da099b4	0.078418165
103	0x3dcbbc08	0.099479735
104	0xbdb268eb	-0.08711418
105	0x3901e138	0.00012386299
106	0x3debcb4e	0.11513387
107	0x3dbc93e4	0.092078954
108	0x3e00f2b3	0.12592582
109	0xbe1c66b7	-0.15273558
110	0x3e18f4a7	0.14937077
111	0x3dc78037	0.09741252
112	0xbdbc52dd	-0.091954924
113	0xbd7eb2fd	-0.062182415
114	0xbe72e4d4	-0.23720104
115	0xbd84736a	-0.06467326
116	0xbe1decbc	-0.15422338
117	0x3d33885b	0.04383121
118	0x3e072983	0.13199429
119	0x3d92a324	0.07160023
120	0x3e107100	0.14105606
121	0xbe497241	-0.1967249
122	0x3de5ed92	0.112269536
123	0x3a5e1fbc	0.0008473357
124	0xbd22e1e1	-0.039766196
125	0x3bc4c25e	0.0060046157
126	0xbdc8bb5f	-0.09801363
127	0x3de3b892	0.11119188
128	0xbe2a1ada	-0.16611806
129	0x3d05fd9e	0.03271257
130	0x3de7526a	0.11295016
131	0xbccb3e7a	-0.024810065
132	0x3e21242f	0.15736459
133	0x3dfe22eb	0.12409004
134	0x3de3261b	0.110912524
135	0xbd895c66	-0.06707077
136	0xbe583a68	-0.2111603
137	0xbe477f6b	-0.194822
138	0x3cae2a72	0.021260474
139	0x3d4fb23f	0.050707098
140	0x3dd39309	0.10330779
141	0x3d714a24	0.058908597
142	0xbe77ce04	-0.24199682
143	0xbd5afffc	-0.053466782
144	0xbe272952	-0.16324356
145	0xbe2df003	-0.16986088
146	0x3e08c98b	0.13358133
147	0x3e39f606	0.18160257
148	0x3e16e0d0	0.14734197
149	0x3dabba70	0.083851695
150	0xbe309618	-0.17244756
151	0x3cef0e9d	0.029181773
152	0xbd8b45d3	-0.06800427
153	0x3d645b8e	0.055751376
154	0x3da703e8	0.08155042
155	0xbd16a8e1	-0.03678215
156	0x3cea2246	0.028580796
157	0xbe40ee1e	-0.18840834
158	0xbd2c1917	-0.042016115
159	0x3d9c1212	0.07620634
160	0xbd9888d9	-0.074479766
161	0xbd04ef7d	-0.032454956
162	0x3d64035f	0.055667277
163	0xbbf9bf57	-0.0076216864
164	0x3d88bcbe	0.06676625
165	0x3dab3a38	0.08360714
166	0xbd69d40a	-0.05708698
167	0x3dcacb1a	0.0990202
168	0x3d9edc36	0.07756846
169	0xbdaeebbf	-0.08541059
170	0xbe4e595c	-0.20151275
171	0x3e403a58	0.18772256
172	0x3dcb78f5	0.0993518
173	0xbe738ee5	-0.23784979
174	0xbe2e701e	-0.17034957
175	0xbd51a534	-0.05118294
176	0xbe32cd8d	-0.17461224
177	0x3d9129df	0.070880644
178	0xbd4251c3	-0.047441255
179	0xbd627406	-0.05528643
180	0x3dde5c61	0.10857464
181	0xbdbb1072	-0.09133996
182	0xbe00055b	-0.12502043
183	0x3e279e2b	0.1636893
184	0xbe1c0b56	-0.152387
185	0x3c6951b3	0.01424067
186	0x3ddef7be	0.10887097
187	0xbdb48e44	-0.088161975
188	0x3db82f29	0.0899337
189	0x3d842fb1	0.06454409
190	0x3dae56f3	0.08512678
191	0x3e1ddad1	0.15415503
192	0xbdfbb2e2	-0.122899786
193	0xbe1eebf0	-0.1551969
194	0xbe482e99	-0.19549026
195	0xbe188d71	-0.14897706
196	0xbe46b022	-0.19403127
197	0xbe31095d	-0.17288728
198	0xb9d6b563	-0.00040952404
199	0xbd95c3a4	-0.07312706
200	0xbcb58256	-0.022156876
201	0xbe07e0e5	-0.13269384
202	0x3d64eac5	0.055887956
203	0x3d771b5c	0.060328826
204	0x3d312cb1	0.04325551
205	0x3e3addeb	0.18248717
206	0x3e215909	0.1575662
207	0xbdcc6954	-0.09981027
208	0xbca2b858	-0.019863293
209	0x3e14dbf6	0.14537033
210	0xbe13387b	-0.14377014
211	0x3e03dd8d	0.12877484
212	0x3d21c67e	0.039495938
213	0x3ddd65eb	0.10810455
214	0x3dbd6f88	0.092497885
215	0x3db94744	0.09046796
216	0xbda93322	-0.08261706
217	0x3c126f31	0.008937643
218	0x3e11ba1d	0.14231153
219	0xbdabcd3a	-0.08388753
220	0x3cee686a	0.029102523
221	0xba3d7128	-0.00072266394
222	0xbc15e4a9	-0.009148755
223	0xbe357435	-0.1772011
224	0x3e0b4818	0.1360172
225	0x3e28c852	0.16482666
226	0xbbc2691e	-0.005932941
227	0x3b413127	0.002947876
228	0x3ce6b4fb	0.02816247
229	0x3ca2c6d4	0.0198702
230	0x3dd68791	0.10475076
231	0x3e27f3ce	0.16401598
232	0x3e329a94	0.1744178
233	0x3cea0338	0.028565988
234	0xbd9bc3de	-0.07605718
235	0x3e0eebd4	0.13957149
236	0xbdef32b8	-0.11679596
237	0xbe5ab64f	-0.21358608
238	0xbd501652	-0.050802536
239	0xbe506bad	-0.20353575
240	0xbe36fcdc	-0.17869896
241	0xbe30182d	-0.17196722
242	0xbd03c588	-0.032170802
243	0x3e196bed	0.14982577
244	0x3e2c38bb	0.16818516
245	0xbe16ee41	-0.14739324
246	0x3e189c05	0.14903267
247	0xbdb0ae6f	-0.086270206
248	0xbe09d75a	-0.13461056
249	0xbe0a8dc9	-0.13530649
250	0x3e5217f3	0.20516948
251	0xbdc9f01a	-0.09860249
252	0x3d835abe	0.06413792
253	0xbe3ed893	-0.18637304
254	0xbdd456c8	-0.10368115
255	0xbd8d009e	-0.06884883

encoder.0.bias f4 [64]
0	0x3d1c19fe	0.038110726
1	0xbda98272	-0.082768336
2	0xbde5e745	-0.11225752
3	0xbdba4c5b	-0.09096595
4	0xbd32398d	-0.043511916
5	0x3d3f725a	0.046739914
6	0xbc57cd25	-0.013171469
7	0x3d4335ee	0.047658853
8	0x3e22ce1a	0.15898934
9	0xbd887a0a	-0.06663902
10	0xbe00561e	-0.12532851
11	0x3b092b3c	0.002093031
12	0xbe0b9483	-0.13630871
13	0x3cdbffd3	0.026855385
14	0xbde4904d	-0.11160336
15	0x3e2340bd	0.15942664
16	0x3d171923	0.036889207
17	0xbd850441	-0.06494952
18	0xbe6191cd	-0.22028275
19	0x3de4ce24	0.11172131
20	0x3e0117cd	0.12606736
21	0xbdbbfa87	-0.09178644
22	0x3def1258	0.11673421
23	0x3da8b307	0.08237272
24	0xbdaea039	-0.08526654
25	0x3cd391e2	0.025826398
26	0x3c868b20	0.016423762
27	0x3a212dae	0.00061484694
28	0x3d5921cd	0.05301075
29	0x3d395a1e	0.045251958
30	0x3cae5363	0.021279996
31	0x3e40396a	0.18771902
32	0x3e3bb3a9	0.18330254
33	0x3a631896	0.00086630264
34	0xbe416c3d	-0.18888946
35	0x3e05f089	0.13080038
36	0x3e33b0c6	0.17547902
37	0xbe48a2c0	-0.19593334
38	0x3e3438b2	0.17599753
39	0xbdb449a4	-0.08803108
40	0x3b7d37c5	0.0038637978
41	0xbd8a4347	-0.067511134
42	0x3de532c4	0.111913234
43	0x3c11f333	0.008908081
44	0xbd4c182e	-0.049827747
45	0xbd87c307	-0.066289954
46	0xbd23cb19	-0.03998861
47	0xbe140c14	-0.14457732
48	0x3e3230af	0.17401384
49	0x3d0bad46	0.034100793
50	0x3df7fa5a	0.12108298
51	0xbdde66a0	-0.10859418
52	0xbd1bd03d	-0.03804039
53	0xbde50ff6	-0.11184685
54	0xbe14eb5a	-0.14542904
55	0x3e318a2a	0.17337862
56	0xbd27f64c	-0.04100637
57	0xbe06318e	-0.13104841
58	0x3ab354ba	0.0013681867
59	0x3c7a9d5a	0.015296305
60	0xbe2ff69c	-0.17183918
61	0xbdd893ef	-0.10575091
62	0xbda70817	-0.0815584
63	0xbe381f34	-0.17980653

encoder.2.weight f4 [128, 64, 3, 3]
0	0xbc2d6a90	-0.0105844885
1	0xbaeef196	-0.0018229957
2	0x3d3ca889	0.046059165
3	0xbc671f92	-0.014106648
4	0x3cfa995d	0.030590707
5	0x3cfcd1d0	0.030861765
6	0x3c314da7	0.010821736
7	0xbccac806	-0.024753582
8	0xbc9bd6ae	-0.019023266
9	0x3d2f0186	0.042726062
10	0x3d4913e6	0.049091242
11	0x3ca21c6c	0.019788943
12	0x3c98a307	0.018632425
13	0xbcae9b8b	-0.021314403
14	0x3ae43439	0.0017410583
15	0xbd2ab9cc	-0.041681096
16	0xbd5f3e33	-0.054502677
17	0xbd2d7c4f	-0.042354878
18	0xbcca8db6	-0.024725776
19	0x3da2153b	0.07914206
20	0x3dd3c383	0.10340025
21	0xbe0171fb	-0.12641136
22	0xbdbaa3aa	-0.09113248
23	0xbcfd28a1	-0.030903162
24	0xbda04fa9	-0.07827694
25	0xbcc07be2	-0.023496572
26	0x3d43498c	0.04767756
27	0x3cfe994b	0.031078955
28	0xbb9b3d0b	-0.0047375015
29	0x3d043097	0.0322729
30	0x3b1b9e6b	0.0023745548
31	0xbd2549cb	-0.040353578
32	0x3bd73d40	0.006568581
33	0xbccec663	-0.025241083
34	0xbcf29cc3	-0.029615765
35	0x3d094d23	0.03352083
36	0xbba5d5bb	-0.005060879
37	0xbc3d239a	-0.011544133
38	0xbd35992f	-0.04433554
39	0xbc811c5c	-0.015760593
40	0xbd0d7ba0	-0.034541726
41	0x3c8f0cd2	0.017462168
42	0x3c4e398a	0.012586961
43	0x3c82ff1c	0.015990786
44	0x3cd1abe7	0.025594665
45	0x3c50dca2	0.012747915
46	0xbc9a38fb	-0.018825999
47	0xbd050893	-0.03247888
48	0xbbbcecc7	-0.0057655307
49	0xbcd55ecf	-0.026046185
50	0xbda5edcd	-0.081019975
51	0xbc89ae2c	-0.016806684
52	0xbd05ae35	-0.03263684
53	0xbafe3624	-0.0019394797
54	0x3c03fb31	0.008055494
55	0x3bd81786	0.006594601
56	0xbcee5bb3	-0.02909646
57	0xbd41272a	-0.04715649
58	0xbc544e7d	-0.012958166
59	0xbd72623a	-0.059175707
60	0x3d08bef6	0.03338524
61	0xbc764d52	-0.015033083
62	0xbcb66d61	-0.022268953
63	0xbd272cba	-0.04081414
64	0xbaf02e71	-0.0018324387
65	0x3c534c20	0.012896568
66	0xbd1a78e8	-0.03771296
67	0xbd1b4efa	-0.037917115
68	0x389f270c	7.588984e-05
69	0xbc19f7ef	-0.009397491
70	0xbd6d4221	-0.057924394
71	0x3bac0c11	0.005250462
72	0x3d364dde	0.044507854
73	0x3cc9557b	0.024576893
74	0x3c689285	0.014195089
75	0xbca60479	-0.020265805
76	0xbd0fa908	-0.03507331
77	0xbd3df6fd	-0.046378125
78	0xbd260d3a	-0.040539958
79	0xbcee226b	-0.029069146
80	0x3d04c5b9	0.032415126
81	0xbd9d098c	-0.076678365
82	0xbdbef5a1	-0.09324194
83	0x3d994230	0.074833274
84	0xbc5e711b	-0.013576771
85	0xbb22fc04	-0.0024869451
86	0x3d51b657	0.051199283
87	0xba533440	-0.0008056797
88	0xbd545ee6	-0.051848315
89	0xbc47ca8c	-0.012194287
90	0x3c3541f7	0.0110630905
91	0x3b03b99f	0.0020099652
92	0x3baca83f	0.00526908
93	0xbb9177b0	-0.0044393167
94	0xbb3c340a	-0.002871754
95	0x3d11fa5f	0.035639163
96	0xbc25c04e	-0.01011665
97	0x3d20aea3	0.039229047
98	0x3d17ca58	0.037058204
99	0xbdce44df	-0.1007173
100	0xbd95bcfe	-0.07311438
101	0xbc4cb7b1	-0.012494967
102	0x3cffeb11	0.031240018
103	0xbc4893f8	-0.01224231
104	0xb84fbfc4	-4.953124e-05
105	0xbd309d0c	-0.04311852
106	0xbd2ddeef	-0.042448934
107	0xbbd3cc3f	-0.006463557
108	0x3d93adf9	0.07210917
109	0xbd676401	-0.056491856
110	0x3a0fc4d1	0.0005484345
111	0x3d44c99e	0.04804384
112	0x3cc79ed8	0.024367735
113	0xbd4d3514	-0.050099447
114	0x3d9ff4d4	0.07810369
115	0x3d0c5de8	0.034269243
116	0xbbda94c4	-0.0066705663
117	0xbc9b0de2	-0.018927518
118	0xbce430a2	-0.027855221
119	0x3db8f6e0	0.09031463
120	0x3d827ef1	0.063718684
121	0xbcb4e550	-0.022082001
122	0x3da1ba73	0.078968905
123	0x3d3af0f7	0.04563996
124	0x3d29d690	0.04146439
125	0x3d4ddffd	0.05026244
126	0x3dfc39cc	0.123157114
127	0x3d1ac02f	0.037780937
128	0x3e00d765	0.12582166
129	0x3d53c20c	0.05169873
130	0x3cc71fc8	0.024307147
131	0x3d296da0	0.041364312
132	0x3d712eaf	0.05888241
133	0x3c846cae	0.016165104
134	0x3d8d764b	0.06907328
135	0x3d0600f6	0.03271576
136	0x3c8ccbc1	0.017187001
137	0xbd146fcf	-0.03623944
138	0xbd0a15d5	-0.033712227
139	0xbcd1c7a3	-0.02560789
140	0xbd066d2d	-0.032818962
141	0xbd04a51a	-0.032384016
142	0x3d01e5db	0.031713348
143	0x3d1b74d1	0.0379532
144	0x3e8849e9	0.2661889
145	0xbb536a05	-0.0032259237
146	0x3d300f70	0.042983472
147	0xbcbf78ac	-0.02337297
148	0xbdffceae	-0.12490593
149	0xbb6f5eaa	-0.003652493
150	0x3e244a0c	0.16043872
151	0x3d20605c	0.039154395
152	0x3e02c92d	0.12772055
153	0x3c7d932a	0.015476981
154	0x3c9e7b5e	0.019345935
155	0x3ab1ae93	0.0013556055
156	0xbd5fa947	-0.054604795
157	0xbd0216f9	-0.03176019
158	0x3d00612b	0.031342667
159	0x3c106604	0.008813385
160	0x3af326cd	0.0018550992
161	0x3cf138e9	0.029446082
162	0xbce35a01	-0.027752878
163	0xbc92d40e	-0.017923381
164	0x3dd0a298	0.10187262
165	0x3a88abec	0.0010427213
166	0xbcdfead8	-0.027333662
167	0xbb3d0515	-0.002884214
168	0x3d1a5e77	0.037687745
169	0xbccc3bfb	-0.024930945
170	0xbc5bebd9	-0.01342293
171	0xbcedb733	-0.02901802
172	0xb9f7ee55	-0.00047289082
173	0x3d58cf04	0.0529318
174	0xbd26bf7d	-0.04070996
175	0xbc9a938c	-0.018869184
176	0x3d0b5737	0.03401872
177	0x3b858c4e	0.0040755635
178	0x398e1bbd	0.00027105017
179	0xbaad6f8d	-0.0013232097
180	0xbc5d1a83	-0.01349509
181	0x3d460a67	0.048349764
182	0x3d30b05e	0.043136947
183	0x3b60b46d	0.003428723
184	0xba0357d1	-0.0005010339
185	0x3c8b1452	0.016977463
186	0x3bf9c1b4	0.007621968
187	0x3bae6178	0.005321678
188	0x3cc2d2a2	0.023782078
189	0x3dc81a49	0.097706385
190	0x3d9195c9	0.071086474
191	0x3e255dd9	0.16149081
192	0x3db8ffa6	0.09033136
193	0x3d022492	0.031773157
194	0x3dd4d9c6	0.103930995
195	0x3cc7153e	0.024302121
196	0xbbb74f50	-0.0055941716
197	0x3d0ba14b	0.034089368
198	0xbd184500	-0.03717518
199	0xbcd821ab	-0.026383242
200	0x3d1552e1	0.036455993
201	0xbab0889c	-0.0013468447
202	0x39d39162	0.00040353375
203	0x3d33019d	0.04370271
204	0xbcf168ad	-0.029468859
205	0x3d02aaed	0.03190129
206	0x3d0ab959	0.033868168
207	0x3c939b89	0.0180185
208	0x3ca0e8d5	0.019642273
209	0xbd677bb5	-0.05651446
210	0x3ced7686	0.02898718
211	0xbb28629b	-0.002569354
212	0xbd3047c7	-0.043037202
213	0x3c90b86a	0.01766606
214	0xbc7e9012	-0.015537279
215	0xbd411b70	-0.047145307
216	0xbd3ac0ef	-0.045594152
217	0xbcc6bccd	-0.02425995
218	0x3d552705	0.052039165
219	0xbcda0328	-0.026612833
220	0x3bc78e60	0.0060899705
221	0x3ccf065a	0.025271583
222	0x3d828164	0.063723356
223	0x3b407a32	0.002936971
224	0xbcb377d0	-0.021907717
225	0x3d07a16c	0.03311293
226	0xbcdec072	-0.027191374
227	0x3d4e2fd5	0.050338585
228	0xbc8034c4	-0.01565016
229	0xbc422e1f	-0.011851816
230	0xbd0927c4	-0.03348519
231	0xbc8803f8	-0.016603455
232	0x3cb402f3	0.021974063
233	0x3c9a34b1	0.018823953
234	0x3cf81921	0.03028542
235	0x3c3bd1c3	0.011463585
236	0x3cbb52c4	0.022866614
237	0x3c782621	0.015145809
238	0x3cebef40	0.028800607
239	0xbc521b70	-0.012823924
240	0x3d05814e	0.032594018
241	0xbd094056	-0.03350862
242	0x3c37b647	0.011212892
243	0xbe831e6c	-0.25609148
244	0xbe3a4b49	-0.18192782
245	0xbe154a98	-0.14579237
246	0xbdb01a5b	-0.08598777
247	0xbd717720	-0.058951497
248	0xbe1ed1d4	-0.1550973
249	0xbdb2df5c	-0.08734009
250	0xbe8399b5	-0.25703207
251	0xbedf1daf	-0.43577334
252	0x3e15dbc1	0.1463461
253	0xbcb25076	-0.021766882
254	0x3d9f4fff	0.0777893
255	0x3db49252	0.08816971

encoder.2.bias f4 [128]
0	0xbbf8a27e	-0.00758773
1	0xbd200d72	-0.039075322
2	0x3d067112	0.032822676
3	0x3d3ec773	0.04657693
4	0x3d20672f	0.039160904
5	0x3d3c1546	0.045918725
6	0xbd2bf3c9	-0.04198054
7	0xbd816228	-0.0631755
8	0x3d322ab2	0.04349775
9	0xbc306a5a	-0.010767544
10	0xbdcf832b	-0.1013244
11	0x3d3de3f6	0.04635998
12	0x3d6823d9	0.056674812
13	0x3d1d8c15	0.03846367
14	0x3d89ef00	0.06735039
15	0x3d6ea42c	0.058262035
16	0xbcefcd99	-0.029272841
17	0x3ce8c468	0.028413966
18	0x3cdf6556	0.02727
19	0xbc4ac8a2	-0.012376936
20	0x3c97a40e	0.018510845
21	0x3d109f01	0.035307888
22	0xbd09c7d7	-0.033637848
23	0xbcc052fe	-0.023477074
24	0xbd077a2e	-0.033075504
25	0x3c5b176c	0.013372283
26	0xbd99bf58	-0.07507199
27	0xbd08d46b	-0.033405703
28	0xbd31138f	-0.043231543
29	0x3d2cf09c	0.04222165
30	0x3d9a3cb9	0.07531113
31	0x3cb54776	0.022128802
32	0xbd6151a9	-0.055009518
33	0xbd11669e	-0.035498254
34	0x3d0c4ba5	0.034251828
35	0x3cf91220	0.03040415
36	0x3d50bb94	0.05096014
37	0x3d9a3e1c	0.07531378
38	0x3d4230ca	0.04740981
39	0xbd12092c	-0.03565328
40	0x3d8eeba9	0.06978542
41	0xbc9fb909	-0.019497411
42	0x3da071ce	0.078342065
43	0x3d36466a	0.044500746
44	0xbc502a83	-0.012705448
45	0x3d9182d2	0.0710503
46	0xbccb5fff	-0.024826048
47	0xbd9b04f9	-0.07569308
48	0x3d99ad39	0.07503743
49	0xbc3b6886	-0.011438495
50	0xbd2b48c2	-0.041817434
51	0x3d95f110	0.0732137
52	0x3d4f0803	0.05054475
53	0x3d94f2de	0.07272886
54	0x3d658a14	0.056039885
55	0x3dde6b38	0.10860294
56	0xbc479276	-0.012180915
57	0xbcb6b41e	-0.022302683
58	0xbc5fb66f	-0.013654335
59	0x3cde6739	0.02714883
60	0x3d78039d	0.06055032
61	0x3d4a0210	0.049318373
62	0xbc13ca50	-0.009020403
63	0x3d5f5c92	0.05453164
64	0x3c3e71d4	0.011623818
65	0xbd39c615	-0.04535492
66	0x3d04f460	0.032459617
67	0xbc1cb19f	-0.009563833
68	0x3cb51bc3	0.022107964
69	0x3ccff4a8	0.025385216
70	0x3d166894	0.036720827
71	0xbcbd47ef	-0.02310559
72	0x3d8e97e7	0.06962567
73	0x3de8c572	0.11365785
74	0xbb64f552	-0.0034936261
75	0x3d221bf2	0.039577432
76	0x3d35d7a3	0.0443951
77	0xbbf5877e	-0.0074929586
78	0xbd7c2ce3	-0.061566245
79	0xbd3efc49	-0.046627317
80	0x3d75c29a	0.06000004
81	0x3de1864b	0.110119425
82	0xbd3738aa	-0.044731773
83	0xbd1225b6	-0.035680495
84	0x3d60842d	0.054813553
85	0x3d50cee0	0.05097854
86	0xbd6dc8e3	-0.05805291
87	0x3d88b856	0.06675784
88	0x3c201c0b	0.009772311
89	0xbcdad40a	-0.026712436
90	0xbc89b31a	-0.016809035
91	0xbd986b16	-0.074423
92	0x3d85ef7a	0.06539817
93	0x3d1127fb	0.03543852
94	0xbaafe550	-0.0013419781
95	0x3da39cc2	0.079888836
96	0x3ce9a3d5	0.028520504
97	0x3d81a59c	0.063304156
98	0xbc2038f9	-0.009779208
99	0x3d7e6989	0.062112365
100	0x3cfb3710	0.030665904
101	0xbbdffcd4	-0.0068355594
102	0xbc4f6385	-0.012658005
103	0xbd582af5	-0.052775342
104	0x3c180133	0.00927763
105	0xbd4333bc	-0.04765676
106	0xbd0bc475	-0.034122903
107	0x3be8eac5	0.007108065
108	0x3d76ba63	0.060236346
109	0xbc8daac7	-0.017293347
110	0x3ccab3e8	0.02474399
111	0xbd47edcb	-0.04881076
112	0x3d13a17b	0.03604267
113	0x3d029904	0.03188421
114	0x3d0edb65	0.0348772
115	0xbd2082c0	-0.039187193
116	0x3c6d9b07	0.014502293
117	0x3da9c791	0.082900174
118	0xbcef3753	-0.029201185
119	0x3b2fd237	0.0026828179
120	0x3da4de12	0.08050169
121	0x3da425ed	0.08015046
122	0xbccbd954	-0.024883904
123	0x3e007a0d	0.12546559
124	0x3cef71ae	0.029229011
125	0x3d9864c9	0.07441098
126	0x3d7696b1	0.060202304
127	0xbc52bd38	-0.012862496

decoder.0.weight f4 [64, 128, 3, 3]
0	0xbbeb712d	-0.0071851225
1	0x3b9a0abb	0.004700986
2	0x3d16950c	0.036763236
3	0xbb15acc2	-0.0022838567
4	0xba584330	-0.0008249758
5	0x3bcc4d57	0.0062348056
6	0x3cb12874	0.021625735
7	0x3c4cc23c	0.012497481
8	0x3c889a70	0.016675204
9	0xbc2b8c99	-0.010470533
10	0xbb9f0f20	-0.004854098
11	0x3cb56f4b	0.022147795
12	0x3c5fe8bb	0.013666327
13	0xbc8bd8b6	-0.01707111
14	0xbb25665b	-0.002523801
15	0x3b9a3d97	0.004707049
16	0xbceb867e	-0.028750654
17	0xbc77b3dd	-0.015118566
18	0xbcae1c92	-0.021253858
19	0xbd225ce4	-0.03963937
20	0xbd3566cb	-0.044287484
21	0xbc37904e	-0.0112038385
22	0xbbf4c1e0	-0.0074694008
23	0xbcb6d1a8	-0.022316769
24	0x3c368191	0.0111392895
25	0xbcc5732e	-0.024102774
26	0xbd9301f6	-0.071781084
27	0xbd536b67	-0.0516161
28	0xbd0af1df	-0.033922072
29	0xbc94cc8e	-0.018163946
30	0xba95ea3e	-0.0011437607
31	0x3ca07e1a	0.01959138
32	0x3b5c6aa0	0.003363289
33	0xbc9e9743	-0.019359237
34	0x3b28f35a	0.0025779814
35	0xbcafa888	-0.021442667
36	0xbd6cf97c	-0.057855114
37	0xbcd80a6d	-0.026372159
38	0xbd2cdbfb	-0.042201977
39	0x3c2282c4	0.009918872
40	0x3a130f0c	0.0005609847
41	0x3c17a175	0.009254803
42	0xbc605452	-0.0136919785
43	0x3c8e539c	0.017373852
44	0xbd2245fb	-0.03961752
45	0xbd5e30f2	-0.054245897
46	0xbd291e79	-0.041288827
47	0xbd89968d	-0.067181684
48	0x3bc359b7	0.0059616226
49	0x3d18e9a4	0.037332192
50	0xbce1287d	-0.027485127
51	0x3c3f2feb	0.011669139
52	0x3cb0c5da	0.021578718
53	0xbd35531c	-0.044268712
54	0xbbf255b5	-0.007395471
55	0x3bd35932	0.006449842
56	0x3ce3af25	0.027793476
57	0xbbd7e42e	-0.0065884804
58	0x3cd835b6	0.026392799
59	0x3bffc7a0	0.0078057796
60	0x3d149def	0.03628343
61	0x3c6ea99a	0.014566803
62	0xbc7113cf	-0.014714195
63	0x3bd9ec88	0.006650511
64	0x3c1a1a7a	0.009405727
65	0x3c2243d0	0.009903863
66	0xbc6d9309	-0.014500388
67	0xbc0c57f9	-0.008565896
68	0xbca672e6	-0.02031846
69	0xbc9d36ed	-0.01919123
70	0x3ca2ae0c	0.019858383
71	0x3cb5d390	0.022195607
72	0xbcd886ef	-0.026431529
73	0xbc974fcb	-0.018470665
74	0xbdd6b19f	-0.10483097
75	0x3bdbe8a9	0.006711085
76	0x3c6eb3e5	0.014569257
77	0xbd6da12b	-0.05801503
78	0xbaf9774f	-0.0019032749
79	0xbc99acf9	-0.018759238
80	0xbdfe0633	-0.12403526
81	0x39512100	0.00019944087
82	0x3c0ff8f2	0.0087873805
83	0xbb49931d	-0.0030757852
84	0xbc42b6e1	-0.011884422
85	0xbcb474cd	-0.022028351
86	0xbca478d3	-0.020077145
87	0x3ccf4819	0.025302934
88	0x3c40990f	0.011755242
89	0xbc69a18e	-0.014259709
90	0xbd9817f5	-0.074264444
91	0xbbfb129a	-0.0076621296
92	0xbd05cf94	-0.032668665
93	0xbd1f1a4b	-0.038843434
94	0xbcfad2e7	-0.030618144
95	0xbccce1ea	-0.025010068
96	0xbd07e439	-0.033176634
97	0xbc1475d3	-0.009061295
98	0xbd635ff2	-0.055511422
99	0xbd2c3c10	-0.042049468
100	0xbd0f0a9e	-0.034922235
101	0xbd3055e0	-0.043050647
102	0xbbf71db1	-0.0075413813
103	0xbc3eda1f	-0.011648684
104	0xbc9ae09d	-0.018905932
105	0xbaf7bed2	-0.0018901473
106	0x3c47b5c8	0.012189336
107	0xbd93fc2a	-0.07225831
108	0xbd2dca43	-0.04242922
109	0xbcc185d7	-0.02362339
110	0xbd54ebf6	-0.051982842
111	0xbbbed8ff	-0.005824208
112	0x3d0e9cf6	0.03481766
113	0xbbf5a50b	-0.0074964813
114	0xbca18277	-0.01971553
115	0x3ad2ee56	0.0016092758
116	0xbcc35768	-0.02384539
117	0x3d0911a3	0.033464085
118	0xbb7a7442	-0.0038216268
119	0x3d26bc9e	0.040707223
120	0xbc12624e	-0.0089345705
121	0xbd6a7033	-0.057235908
122	0x3ad7a8bb	0.0016453484
123	0x3c2f9c85	0.0107184695
124	0x3c456a51	0.012049274
125	0x3d0ae478	0.03390929
126	0xbdc491db	-0.09598132
127	0xbd3f1d2c	-0.04665868
128	0xbdb27dd1	-0.08715404
129	0xbc59f49d	-0.013302949
130	0x3c33c154	0.010971386
131	0xbd116378	-0.03549525
132	0xbcbe786c	-0.023250781
133	0xbc7948fa	-0.015215153
134	0xbda14b3f	-0.0787568
135	0xbce61cfe	-0.028089996
136	0x3ce8a6f6	0.028399926
137	0xba5aa64a	-0.0008340819
138	0x3d6b6551	0.05746967
139	0x3d742900	0.059609413
140	0x3d22a2c1	0.039705995
141	0xbca956c1	-0.02067125
142	0x3d314dda	0.043287136
143	0xbcbddd34	-0.023176767
144	0x3cca5fed	0.024703944
145	0x3d47fc62	0.048824675
146	0x3d868269	0.065678425
147	0x3ce17fed	0.02752682
148	0x3d2a0bcb	0.041515153
149	0x3d487ebb	0.048948985
150	0x3bfe3e9f	0.00775893
151	0x3d29738f	0.04136997
152	0x3d68445b	0.056705814
153	0xbd271c8c	-0.04079871
154	0x3c428684	0.011872891
155	0xbda63366	-0.08115272
156	0x3d3e2208	0.046419173
157	0x3c37043a	0.011170441
158	0xbcb790be	-0.022407886
159	0xbb79d09a	-0.003811872
160	0x3cfc3ecb	0.03079166
161	0xbb851380	-0.0040611625
162	0xbd208be7	-0.03919592
163	0xbb9fdee5	-0.004878866
164	0xbd2f891e	-0.042855375
165	0xbd46da9b	-0.048548322
166	0xbb9e3f85	-0.0048293495
167	0xbd0ad334	-0.033892825
168	0xbd63f917	-0.055657472
169	0xbd436784	-0.047706142
170	0xbdcb6ac6	-0.09932475
171	0x3bffa4c7	0.0078016254
172	0x3c0891ef	0.0083355745
173	0x3cd7192d	0.026257122
174	0xbc9e2169	-0.01930304
175	0xbce8d87b	-0.028423538
176	0x3cb8bc3c	0.022550695
177	0x3c35db5c	0.011099663
178	0x3c57c15f	0.013168662
179	0x3b2e0f74	0.0026559504
180	0x3de2f6c9	0.11082227
181	0x3dbc7c70	0.09203422
182	0x3dba8919	0.091081806
183	0x3dd1a8e3	0.10237291
184	0x3db82cf4	0.08992949
185	0x3e018f83	0.12652402
186	0x3d9a4604	0.07532886
187	0x3db81df2	0.089900866
188	0x3e13bc57	0.14427315
189	0xbe416e7e	-0.18889806
190	0xbc53597c	-0.012899753
191	0xbd81ab8c	-0.06331548
192	0xbd4bb5df	-0.049733993
193	0x3cdc122a	0.02686413
194	0x3bf04354	0.007332245
195	0xbda4045a	-0.080086425
196	0x3d2f1f38	0.042754382
197	0xbd03f4c3	-0.032215845
198	0xbbed671a	-0.0072449567
199	0xbcafbbc2	-0.021451835
200	0xbb6c1fd0	-0.0036029704
201	0xbcaa764b	-0.02080836
202	0xbb03a523	-0.0020087443
203	0xbcb7530f	-0.022378473
204	0x3c311208	0.010807522
205	0x3cb9415b	0.022614172
206	0xbce5e67b	-0.028064003
207	0xbb82bc61	-0.0039897417
208	0x3ba84655	0.0051353374
209	0xbc885584	-0.01664234
210	0xbca1c9b1	-0.019749494
211	0xba8ac493	-0.0010587148
212	0xbb6c90f4	-0.003609714
213	0x3cb82fd0	0.022483736
214	0x3b0edde7	0.0021799745
215	0xbd01d5f2	-0.031698175
216	0x3caf40c8	0.021393195
217	0x3d1b3d78	0.037900418
218	0x3d67e8b2	0.0566184
219	0x3c9c9a73	0.019116616
220	0x3d0d7168	0.03453198
221	0x3ce1ad33	0.027548408
222	0x3c53de31	0.0129313925
223	0x3c288249	0.010284969
224	0x3d44a85f	0.048012134
225	0x3df14b4c	0.1178194
226	0x3dbe27ee	0.0928496
227	0x3dc8b85e	0.0980079
228	0x3dc2a32e	0.0950378
229	0x3dc9d93b	0.098558865
230	0x3dbfdaad	0.09367881
231	0x3dd799f3	0.1052741
232	0x3df29b85	0.11846069
233	0x3db819e2	0.08989312
234	0x3b5d7f5e	0.003379784
235	0xb9fabc66	-0.00047824084
236	0xbb056100	-0.0020352006
237	0x3bd0531c	0.0063575637
238	0xbc67c54f	-0.014146163
239	0xbc36cf72	-0.011157857
240	0xbcfcada0	-0.03084451
241	0xbce9cc7a	-0.028539885
242	0xbafa119d	-0.0019078735
243	0xba7cf190	-0.0009649033
244	0xbcbfdbfa	-0.023420323
245	0x3c8b5878	0.017009959
246	0xbccf7323	-0.025323456
247	0xbbc3c24c	-0.0059740897
248	0xbc0efe3c	-0.008727606
249	0xbbcd4154	-0.0062638912
250	0x3be17d93	0.0068814247
251	0x3ca80591	0.020510467
252	0xbc8ebe4b	-0.017424723
253	0xbd0802b0	-0.033205688
254	0x39ecce40	0.00045167096
255	0xbcece189	-0.028916137

decoder.0.bias f4 [64]
0	0x3db99327	0.0906127
1	0x3d9d8e27	0.07693129
2	0xbb87fab6	-0.00414976
3	0x3b7d5759	0.00386568
4	0x3d1f1d05	0.038846035
5	0x3d76653e	0.060155146
6	0x3b9a8307	0.0047153267
7	0x3d77a11e	0.060456388
8	0xbbd46227	-0.0064814272
9	0xbd1c3aba	-0.038141944
10	0x3c8098af	0.015697805
11	0x3d86d89b	0.06584283
12	0x3cadbf1c	0.021209292
13	0x3b44fcd5	0.0030057926
14	0x3d6e1cb3	0.05813284
15	0xbcbaddf9	-0.022810923
16	0x3d17c0e2	0.03704918
17	0xbd5fd8c5	-0.054650087
18	0xbd0518fc	-0.03249453
19	0x3c5dab05	0.013529544
20	0x3dfd4141	0.12365962
21	0xbb410ebb	-0.0029458243
22	0xbd0b84d1	-0.03406221
23	0xbcba7291	-0.022759708
24	0xbc12864d	-0.008943153
25	0x3d451cba	0.0481231
26	0x3e090afa	0.13383093
27	0xbbd76103	-0.006572844
28	0x3d77f9f9	0.060541127
29	0x3c8b76aa	0.017024357
30	0x3e001728	0.12508833
31	0x3c8f886c	0.017521106
32	0xbd2ec1b2	-0.04266519
33	0x3b4b097f	0.0030981002
34	0x3e2de0c7	0.16980277
35	0x3d67b88a	0.056572475
36	0x3d6cf91c	0.057854757
37	0xbc28a4e6	-0.010293221
38	0x3d328d06	0.04359152
39	0x3b8eeaac	0.004361471
40	0x3dc27070	0.09494102
41	0x3db1c368	0.08679849
42	0x3e06dfc7	0.13171302
43	0x3ccc75a3	0.024958437
44	0x3bf49d49	0.007465039
45	0x3be13f22	0.006873981
46	0x3d86019c	0.06543276
47	0x390d428a	0.00013471596
48	0x3cfde01b	0.03099065
49	0x3da2e945	0.07954649
50	0x3d9b51fe	0.07583998
51	0x3d23169f	0.039816495
52	0x3d6a9991	0.05727536
53	0xbc85781f	-0.01629263
54	0xbd92990f	-0.071581
55	0xbd230805	-0.03980257
56	0x3d838f01	0.0642376
57	0x3d98793c	0.074449986
58	0x3d11e195	0.035615522
59	0x3d80c0cc	0.06286773
60	0x3d173377	0.036914315
61	0x3d52aca6	0.05143418
62	0xbd2da4c2	-0.042393453
63	0xbd2852b9	-0.041094515

decoder.2.weight f4 [1, 64, 3, 3]
0	0xbd98a415	-0.07453171
1	0x3ad141ce	0.0015965046
2	0xbdacb5c5	-0.08433107
3	0xbcb80af3	-0.022466158
4	0xbc80e590	-0.015734464
5	0xbd081b6d	-0.03322928
6	0xbce0c1e1	-0.027436199
7	0x3b709ab8	0.0036713313
8	0xbdaef017	-0.08541887
9	0x3d8a61a1	0.067569025
10	0x3ce9c164	0.028534599
11	0x3d9f08a4	0.0776532
12	0xbca87407	-0.020563139
13	0xbc84cfe0	-0.016212404
14	0x3b169574	0.0022977265
15	0x3db92db1	0.09041918
16	0x3d3eb49a	0.046558954
17	0x3d9aabcd	0.075523
18	0x3df6a887	0.12043863
19	0xbd714c98	-0.058910936
20	0xbe1a42c3	-0.1506453
21	0x3dd2033c	0.10254523
22	0x3be7acac	0.0070701446
23	0xbe142cb1	-0.14470173
24	0x3e10bd12	0.14134625
25	0x3bf49b8f	0.007464833
26	0xbcd93b7b	-0.02651762
27	0xbce9d14d	-0.028542185
28	0x3cb9fbd9	0.022703098
29	0x3d1beaad	0.0380656
30	0x3d192c0a	0.037395515
31	0xbc496b1b	-0.012293602
32	0xbce5aa4a	-0.028035302
33	0x3c496625	0.01229242
34	0xbbf22fe8	-0.007390965
35	0x3c5f59e4	0.013632271
36	0x3d3c0a59	0.045908306
37	0x3cf7a03d	0.030227775
38	0xbc8753f6	-0.016519528
39	0x3c8c8db5	0.017157415
40	0xbcc29c87	-0.023756279
41	0x3c317490	0.010831013
42	0x3d8ff3c5	0.07028917
43	0x3d3e58ad	0.046471287
44	0x3d793ff3	0.060852002
45	0xbd334f0d	-0.04377656
46	0xbd88fd9e	-0.06688999
47	0xbdf21604	-0.118206054
48	0x3b3a27a1	0.0028404968
49	0xb9fa1a87	-0.0004770348
50	0x3d0d1687	0.034445312
51	0x3d62be84	0.05535747
52	0x3d5b01f2	0.053468652
53	0x3c82d257	0.015969438
54	0xbb833ec0	-0.004005283
55	0x3d03d099	0.032181356
56	0x3ce8400e	0.028350856
57	0x3cb6f7cb	0.022334954
58	0xbc570afe	-0.013125179
59	0xbc20db1b	-0.009817864
60	0xbc085439	-0.0083208615
61	0x3c9e3369	0.019311624
62	0xbbf5126e	-0.0074790036
63	0x3d70093f	0.058602568
64	0xbb2436b8	-0.002505703
65	0xbe12fcaa	-0.14354196
66	0x3d75955a	0.059956886
67	0x3d39d14c	0.045365617
68	0xbd92bcf7	-0.071649484
69	0x3d93f22a	0.072239235
70	0x3d1de8a3	0.038551938
71	0xbd98917c	-0.07449624
72	0x3e435530	0.19075465
73	0x3dc87875	0.097886
74	0x3e1acf9f	0.15118264
75	0x3db6d075	0.08926479
76	0x3d38c6e1	0.04511154
77	0x3e0cd152	0.13751724
78	0x3df3cc2f	0.11904179
79	0x3e105cef	0.14097951
80	0x3e2974a0	0.16548395
81	0x3b903179	0.004400429
82	0xbc3e2a47	-0.011606759
83	0xbc68bba6	-0.014204895
84	0xbc25dea7	-0.010123885
85	0xbc9d9181	-0.01923442
86	0x3cc1e179	0.023667084
87	0xbd1c2d67	-0.038129237
88	0xbcd6080a	-0.02612688
89	0xbd0654e2	-0.032795794
90	0xbd0fb501	-0.03508473
91	0xbd8f6217	-0.07001131
92	0xbd33905d	-0.043838847
93	0x3c4996eb	0.012304048
94	0xbd36eae6	-0.04465761
95	0xbbcfdf43	-0.0063437535
96	0x3e09b3bc	0.1344747
97	0x3d6fdb3f	0.0585587
98	0x3d97cf13	0.07412543
99	0x3dd382bb	0.10327669
100	0x3d088ddf	0.033338424
101	0x3ccb11cb	0.024788758
102	0x3d54263c	0.051794276
103	0xbd0372ff	-0.03209209
104	0x3ad3ec6b	0.001616848
105	0x3d655650	0.055990517
106	0x3c5b35f9	0.013379567
107	0x3d919c01	0.071098335
108	0x3e2a45ca	0.16628185
109	0xbb97d8a4	-0.00463398
110	0xba75c995	-0.00093760464
111	0x3d0b3bdd	0.033992637
112	0xbb2c6b50	-0.002630908
113	0x3d567602	0.052358635
114	0x3c788576	0.015168538
115	0xbcbcafc1	-0.023033025
116	0x3d8737ce	0.06602441
117	0x3c5e8d1f	0.013583451
118	0x3d789288	0.060686618
119	0x3e1ce7a4	0.15322739
120	0x3cf76b49	0.030202525
121	0x3bdd4b10	0.006753333
122	0x3d9f36ff	0.077741615
123	0x3d1a76b2	0.037710853
124	0xbc3aa9a4	-0.011392985
125	0x3dba9bdd	0.0911176
126	0xbdf45ad3	-0.11931386
127	0x3c973051	0.018455656
128	0x3d8ef1d3	0.06979718
129	0xbd555952	-0.052087136
130	0x3d87d9fc	0.06633374
131	0x3ba52e2b	0.005040904
132	0xbd8951aa	-0.06705029
133	0xbc3a3332	-0.011364745
134	0x3d3bd0d1	0.04585344
135	0xbc4f9a6f	-0.012671097
136	0x3a2e46a8	0.0006648102
137	0x3c47d9e1	0.0121979425
138	0xbce0f4bc	-0.027460448
139	0xbb89cc81	-0.004205287
140	0x3c73179a	0.01483717
141	0xbc53f7d2	-0.012937503
142	0x3c89e333	0.01683197
143	0x3be13749	0.0068730456
144	0x3daf0dba	0.0854754
145	0x3d5d721c	0.0540639
146	0x3ddded92	0.108363286
147	0xbb9038f7	-0.004401322
148	0x3c402e93	0.011729854
149	0xbce763f9	-0.028245913
150	0xbbdaf70a	-0.0066822814
151	0xbbdd23e2	-0.0067486623
152	0xbd30fb79	-0.043208573
153	0x3ab8033e	0.0014039052
154	0xbd4c7764	-0.049918547
155	0xbb188881	-0.0023274722
156	0xbcb1438e	-0.021638658
157	0xbcd161c9	-0.025559323
158	0xbd510f46	-0.051039957
159	0xbad5ac76	-0.0016302008
160	0xbd15c53d	-0.036565054
161	0xbd0c16d6	-0.034201466
162	0xbcfd667d	-0.03093266
163	0xbd107100	-0.035264015
164	0xbadbbc1a	-0.0016764433
165	0xbc042406	-0.008065229
166	0x3aca770b	0.0015446855
167	0xbb84e196	-0.0040552123
168	0xbd818f0c	-0.06326112
169	0xbd3e977e	-0.046531193
170	0x39239ff4	0.00015604479
171	0xbc606f8b	-0.013698469
172	0x3c935850	0.017986447
173	0x3d8d32eb	0.068944775
174	0x3c4ece13	0.012622374
175	0xbd3ebcbf	-0.04656672
176	0xbbb2c0ce	-0.005455113
177	0xbc2b3447	-0.010449476
178	0x3cdc4e40	0.026892781
179	0x3d72d048	0.059280664
180	0xbe027085	-0.12738235
181	0xbd1389e5	-0.03602018
182	0xbd72ff2a	-0.059325375
183	0xbca592e7	-0.02021165
184	0x3cf23d94	0.029570378
185	0x3b9ca20a	0.0047800587
186	0xbe039e65	-0.12853391
187	0x3b5e1d4b	0.0033891972
188	0xbdf9c663	-0.121960424
189	0x3e18376f	0.14864896
190	0xbc562eaf	-0.013072654
191	0x3c9ad04f	0.018898157
192	0x3d923b12	0.07140173
193	0xbb822f56	-0.003972928
194	0x3d3e00bb	0.046387415
195	0x3e2bcbb2	0.16776922
196	0x3cc852d9	0.024453567
197	0x3d68b753	0.056815457
198	0x3c9c0486	0.019045126
199	0xbd1732bb	-0.036913615
200	0x3d0cf1d1	0.0344103
201	0xbd114132	-0.035462566
202	0x3cabb03e	0.020958062
203	0xbc7509fc	-0.014955994
204	0x3cd2e227	0.025742603
205	0xbc12eab5	-0.008967091
206	0x3c918a1f	0.017766057
207	0x3c85246d	0.01625272
208	0x3afc1612	0.0019232652
209	0xbc2cd36c	-0.010548454
210	0xbce73b4d	-0.028226519
211	0x3c8e72b9	0.017388688
212	0xbc2497b4	-0.0100459345
213	0xbd1ed2d1	-0.03877527
214	0xbd4c9c00	-0.04995346
215	0xbcfca62e	-0.03084096
216	0xbc5dbe47	-0.013534135
217	0x3c12269f	0.008920341
218	0xbcc5db22	-0.024152342
219	0x3d1894d6	0.037251316
220	0x3c9a2f11	0.018821271
221	0x3d1d1272	0.03834767
222	0xbca3313d	-0.01992094
223	0xbc01b632	-0.007916974
224	0x3c37cfdd	0.011218992
225	0x3cd66a3d	0.026173705
226	0x3d7f8d58	0.062390655
227	0x3df737d3	0.120711945
228	0xb9c4a96e	-0.00037510268
229	0x3d1e11ea	0.038591303
230	0x3d8284f9	0.06373019
231	0xbb4ae36a	-0.0030958303
232	0x3d2a70dc	0.041611537
233	0x3dee4aef	0.11635386
234	0xbd90cc8a	-0.07070263
235	0xbd9c3ae8	-0.07628423
236	0xbe14d7d0	-0.14535451
237	0x3ce52b16	0.027974647
238	0xbccec2fc	-0.02523946
239	0xbd991b9e	-0.07475971
240	0xbd9cdfd0	-0.07659876
241	0xbd5c809c	-0.05383359
242	0xbe35deed	-0.1776082
243	0x3cb78a25	0.02240474
244	0xb9bcbfb7	-0.00036000993
245	0xbe0977f2	-0.13424662
246	0x3cc37351	0.023858698
247	0xbd8d3483	-0.068947814
248	0xbd6a6647	-0.057226446
249	0x3ce739a8	0.028225735
250	0x3c2e84f8	0.010651819
251	0xbd37e2a2	-0.04489387
252	0x3d98c3e8	0.07459241
253	0x3d43b6a2	0.047781594
254	0x3d87127a	0.06595321
255	0x3c8255db	0.01591008
