Model/Train_6/colorectal_segmentation_model (6).pth (torch, 603784 bytes, 7 tensors)

encoder.0.weight f4 [64, 3, 3, 3]
000000 4c 73 ce 3d c3 ed a7 bd 4a 7d a3 3d 8e 29 c9 bd
       0.10080585 -0.08199646 0.07982881 -0.09822379
000010 1d ce bd 3d 22 0b d7 3d f9 60 ce bd ef 96 82 3c
       0.092678286 0.1050017 -0.1007709 0.015941111
000020 60 bf 95 3d 6f 5d 4f be 60 10 1a 3d 71 e0 80 bd
       0.073118925 -0.20250486 0.037613273 -0.06292809
000030 cc 8a 45 3d 9d c4 03 3e 11 83 81 3c 21 ed 2b be
       0.04822807 0.12867971 0.015809568 -0.16789676
000040 2e ac e3 bd 2b 4a 04 bd d2 a9 20 3e 25 f5 6b bc
       -0.11116825 -0.032297295 0.15689781 -0.014401709
000050 fa ae 1e be a0 d2 f0 3b 52 7d e1 bd f4 ea 4e be
       -0.15496436 0.007349327 -0.11010231 -0.20206815
000060 65 31 f4 bd 21 3f 22 3d 9d 7f 97 3d 90 47 2f 3e
       -0.11923484 0.039610986 0.07397387 0.17117143
000070 1d a7 d8 3c b4 89 35 3e c9 c1 67 be 84 28 24 3d
       0.026446873 0.17728311 -0.22632517 0.0400777
000080 a0 77 ba bd 5d be 9e 3d 06 87 cf bd ad 8b ab 3b
       -0.09104848 0.07751153 -0.101331756 0.0052351565
000090 b2 fc 20 3e e3 18 2b 3e 8f 6b 27 bd e3 b0 b0 3d
       0.15721396 0.16708712 -0.04087406 0.086274885
0000a0 ce 90 40 be 14 37 e3 3d 20 9f b5 bd 44 7c 77 3e
       -0.18805239 0.1109449 -0.08868241 0.24168497
0000b0 d8 47 e7 3d 26 ba 0d bb 51 22 69 3d a1 bf 8c 3b
       0.11293 -0.0021625846 0.056917492 0.004295305
0000c0 bc 7a 68 be 3f 13 24 be ed 40 f7 bd 9e 95 ae be
       -0.2270307 -0.16022967 -0.120729305 -0.34098524
0000d0 8a 1b 5d bd 80 85 4d 3e db 25 38 3e 9e da 6c 3d
       -0.05398134 0.20070457 0.1798319 0.057825677
0000e0 a0 60 51 be ca 4b 1e 3e ff b9 2d be 10 43 20 be
       -0.20447016 0.15458599 -0.16965483 -0.15650582
0000f0 6a 3c 9d 3c ab 94 58 3d e3 6d 23 3c 66 88 1b 3e
       0.019193847 0.052876156 0.0099749295 0.1518875
000100 13 4b 0b 3d bf 56 13 be 98 f1 7d 3d c1 6f 08 3e
       0.034007143 -0.1438856 0.06199798 0.1332388
000110 23 a9 19 3e cf 3d 0a be bb 2b 65 bd d8 56 c6 3d
       0.15005927 -0.1350014 -0.055949908 0.09684533
000120 f8 f7 08 3d 11 e2 52 bd 1d 4a 07 be 3f 3c 1f be
       0.033439606 -0.051485125 -0.13211866 -0.15550326
000130 60 58 1f be 53 8d 85 be 91 2d 6d 3d 4d 5a 5c 3e
       -0.15561056 -0.26084384 0.057904784 0.21518822
000140 1f 55 58 3e 93 60 b6 3b 78 4d ba 3b a8 1a 76 be
       0.21126221 0.0055657118 0.0056855045 -0.24033606
000150 bf f9 ec 3d 4d 40 11 3e 0d c7 ee bd ed 1d 52 3d
       0.11571073 0.14184685 -0.1165906 0.05129807
000160 ac 02 0e 3e 46 18 0c 3e 3b 32 2e 3e d8 8e db 3d
       0.13868207 0.13681135 0.17011349 0.10720605
000170 71 b0 a4 3c fb 39 24 be a1 b8 48 bd ee 9c 29 be
       0.020103665 -0.16037743 -0.0490042 -0.1656377
000180 ff 9c e3 bd 3c 18 10 bb 18 95 3c 3e 36 c5 02 be
       -0.11113929 -0.00219871 0.1841625 -0.12770543
000190 b6 29 48 3e 21 22 09 be 39 d6 2c 3e 09 15 de bd
       0.19547161 -0.13391925 0.16878594 -0.10843856
0001a0 73 5a b5 3c d7 c0 18 3e 66 55 cd 3c 83 a1 4e be
       0.022137856 0.14917313 0.025065135 -0.201788
0001b0 d8 93 48 bd 2b b1 02 3e 6f c0 c5 3d 7c a7 57 be
       -0.04896912 0.12762897 0.096558444 -0.21059984
0001c0 ca 53 62 be 8f 4c 02 3e 44 02 8b 3c f8 40 06 bd
       -0.22102275 0.12724517 0.016968854 -0.032776803
0001d0 f1 f2 95 bd 96 aa eb bd cc 89 a7 3d 30 64 5f 3d
       -0.07321728 -0.11507146 0.081805795 0.054538906
0001e0 fb 55 2d 3d ad c2 9c bd 5c 1d 9e bc 21 32 24 3d
       0.042318325 -0.07654319 -0.019301109 0.04008687
0001f0 0d fa 6f be 46 d5 ac bb d5 4f f2 3d 20 92 61 bd
       -0.2343523 -0.0052744476 0.11831633 -0.055070996
000200 42 bf 6c be 9f b7 05 3e d5 c9 68 be a8 28 c7 3d
       -0.23119834 0.13058327 -0.22733243 0.097245514
000210 e4 14 01 be 83 e3 d5 3b ac 50 4d bd 00 28 e7 bd
       -0.12605625 0.0065273657 -0.050125763 -0.11286926
000220 13 d5 bf 3d b1 49 28 bd ad cd 32 be 15 65 a3 3d
       0.093668126 -0.041085903 -0.17461272 0.07978264
000230 03 09 95 3d e1 28 53 3c a2 a5 0c bd 92 b1 2d bd
       0.072771095 0.012888164 -0.034337647 -0.042405672
000240 f7 b4 32 be 4a af 38 be eb 72 26 3e bf 3a cb bd
       -0.17451845 -0.18035617 0.16254775 -0.09923314
000250 cc fe 6b be 41 c3 11 3e 08 a9 81 bd e7 b1 c2 bd
       -0.23046416 0.1423464 -0.06331068 -0.095065884
000260 a6 9c 55 be aa 11 dc 3d be 11 38 be 26 85 ee 3d
       -0.20860538 0.10745557 -0.17975518 0.1164649
000270 ab 5c 5a 3d 40 28 ad 3d e2 0c c5 3d 40 35 2f 3e
       0.05331103 0.08454943 0.09621598 0.17110157
000280 92 7e e2 bd 10 22 9f bc 57 b4 94 3c e8 88 3a 3d
       -0.110592976 -0.019425422 0.018152399 0.04554072
000290 60 09 50 3e be 89 37 be 89 04 8e 3d c4 6a 1c 3e
       0.20316076 -0.17923638 0.06934459 0.15275103
0002a0 3a 40 7b be e4 6c 46 3d 75 84 55 3e 32 59 5f 3d
       -0.24536219 0.04844369 0.2085131 0.054528423
0002b0 e9 5a fd 3d 9d 8b e1 3d 7f 9e 1d be 5f 6f 26 3e
       0.12370855 0.11012957 -0.15392493 0.16253422
0002c0 2c d0 e2 3c 99 62 6c 3d 30 8f af 3d 56 14 ef 3d
       0.027687155 0.057711218 0.08572233 0.11673801
0002d0 0e 02 60 be e9 91 cb bd 55 0c db bc 54 ba 3c be
       -0.21875784 -0.099399395 -0.026739279 -0.18430454
0002e0 06 35 90 bb 8e b7 e2 3d f2 62 84 bd 12 a6 4b be
       -0.004400852 0.110701665 -0.06464185 -0.1988757
0002f0 14 f7 68 3d 77 4b 88 b7 a4 7f a4 bc 27 7e b1 3d
       0.056876257 -1.6247604e-05 -0.020080395 0.0866664
000300 0b 61 8f bd c1 56 e6 3d 9f 53 83 bd a3 dc 46 3d
       -0.07000931 0.11247016 -0.06412434 0.04855026
000310 87 6f c3 3d 59 d0 0f be e5 53 48 be bf 33 96 be
       0.095427565 -0.14044322 -0.19563253 -0.29336354
000320 d1 0c a5 be a8 db 9e 3d 73 e1 38 be db 2a ad 3d
       -0.3223634 0.0775674 -0.18054752 0.0845544
000330 c5 01 f5 bd ee aa 23 3b e6 6c 3e bc c3 40 df bd
       -0.11963228 0.0024973708 -0.011622643 -0.10901024
000340 ef 33 5b be 56 09 5f 3d f8 cd c1 3d 49 a3 f8 3d
       -0.2140653 0.054452263 0.094631135 0.12140519
000350 2d a7 33 be 1c d3 2b 3e 02 bc ba bd bb e8 ae 3d
       -0.17544241 0.1677975 -0.09117891 0.085404836
000360 cb 04 25 3d ed dd 0f be 76 18 24 be a5 dd ec bd
       0.040287774 -0.14049502 -0.16024956 -0.11565713
000370 d6 21 9d bd 49 b2 3d 3e f1 62 e6 bb e3 bc 8d 3d
       -0.07672469 0.18525042 -0.0070308377 0.06920793
000380 f8 6d 0f 3e c8 03 8d 3d 73 af 29 3e 6a c8 c8 bd
       0.14006793 0.06885487 0.16570835 -0.09803851
000390 90 03 19 be 14 a4 d9 3d 8b 15 02 3e 79 e4 9a bd
       -0.14942765 0.106269985 0.1270353 -0.07563109
0003a0 96 c4 dd bd 6e 22 16 be ab fb 0a 3e 83 06 10 be
       -0.108285114 -0.14661571 0.13572566 -0.14064984
0003b0 21 23 f7 3d 1e 0a 09 3d 9b 79 4f be 21 a0 0e bd
       0.12067247 0.033456914 -0.20261233 -0.03482068
0003c0 b3 98 10 be d1 e2 12 3e eb 68 a0 3d 93 f4 7c bd
       -0.1412075 0.14344336 0.078325115 -0.06175668
0003d0 33 55 c3 bd d2 68 12 3d a2 dc 69 3d c4 79 a2 bd
       -0.09537735 0.035744496 0.057095177 -0.07933381
0003e0 40 97 0a 3e 1e 9d 43 3e 78 6c 79 be 3f b2 bd bd
       0.1353426 0.19102904 -0.24357784 -0.09262513
0003f0 54 4b bb 3d 7a d1 b7 3d 1b cf ac 3d a3 21 79 3d
       0.09145227 0.08975501 0.0843794 0.060823094

encoder.0.bias f4 [64]
000000 6f ee 3f be 56 48 80 ba eb 36 f6 bc 1f a8 68 be
       -0.18743299 -0.0009787183 -0.030055484 -0.22720383
000010 5d 0f f8 bd 45 90 04 be cd 07 0d be 72 3a e6 3d
       -0.12112305 -0.1294566 -0.13772507 0.11241616
000020 50 15 9f bc 65 d7 87 3d 4e bc 09 bd 52 83 71 3d
       -0.019419342 0.0663288 -0.033626847 0.058963127
000030 7a 4e 5f be e3 86 15 3e f6 44 52 be 8d 94 38 ba
       -0.2180728 0.14602236 -0.20534119 -0.0007041179
000040 d1 f0 97 3d b5 2d 25 be 14 03 f1 3d f3 43 67 bd
       0.07418979 -0.16130717 0.11768165 -0.056461286
000050 6c 41 32 3d 9e f3 2b 3d 41 43 11 3e 44 69 1e 3d
       0.043519422 0.04198038 0.14185812 0.038674608
000060 0f b1 3a bd ea f7 14 bd 9f c4 fa 3d 12 31 92 bd
       -0.045579012 -0.03636924 0.12244534 -0.07138266
000070 b5 e5 98 3c 64 a6 0c be 92 a2 04 be 08 f1 fd bc
       0.01866422 -0.13735348 -0.1295264 -0.030998722
000080 c8 3d d9 3d 54 13 39 3e 5f ed 29 bd 13 23 5d be
       0.10607487 0.1807378 -0.04148614 -0.21595411
000090 58 ea f3 bd 99 fc 88 bc 43 8d 0d bd 24 57 c9 3d
       -0.11909932 -0.01672201 -0.034558546 0.09831074
0000a0 82 0b 24 3e 4b 8e ae bd 0e 7e 1b 3e 00 c7 f0 bc
       0.16020015 -0.08523234 0.15184805 -0.029391766
0000b0 b8 d7 84 bd 01 63 d8 bd c3 9d 98 bd 1e 4d ec 3d
       -0.064864576 -0.105657585 -0.07451966 0.115381464
0000c0 8b 28 55 3e 95 20 30 3e 98 2d ec 3d 60 98 1e be
       0.20816247 0.17199929 0.11532134 -0.15487814
0000d0 49 6f 60 3e 96 4b 2f be 58 51 1b 3e e8 00 d5 bd
       0.21917452 -0.17118677 0.15167749 -0.104005635
0000e0 63 50 23 3e fa fc a7 bd 5a af a0 3d f5 89 0f 3e
       0.15948634 -0.08202548 0.07845946 0.1401747
0000f0 8e fb dd bd 6a c2 a6 3d 14 47 63 be f1 61 4c 3e
       -0.10838996 0.0814255 -0.22195083 0.19959237

encoder.2.weight f4 [128, 64, 3, 3]
000000 b5 58 61 3d 7d 68 43 bc c5 b3 fd bb 4b b7 81 3b
       0.05501624 -0.011926767 -0.0077423775 0.003958618
000010 b8 00 32 bc 1f 90 8b 3d 36 d7 b6 bc 79 fa b5 bb
       -0.010864429 0.06814598 -0.022319417 -0.0055535403
000020 fa 88 33 3b 3c ef 46 bd d4 45 d6 bb a3 2e 17 bd
       0.0027394877 -0.048567995 -0.006539086 -0.03690971
000030 67 79 52 ba 99 e5 2d bb ee 52 7e bc 17 e9 e5 bc
       -0.00080289546 -0.0026534556 -0.015522702 -0.028065247
000040 dd 42 14 bd 4b 2b 92 bd 06 33 6e bd 01 64 4a bd
       -0.03619658 -0.07137164 -0.05815413 -0.049411777
000050 ed 65 c9 bb 4f 4f 81 bd ee cf 56 3b 03 a2 1b bd
       -0.0061461837 -0.06313955 0.0032777744 -0.037996303
000060 cf 81 a0 bd 69 fc 04 bd 34 67 9a bc 4c 21 04 3d
       -0.07837259 -0.03246728 -0.01884804 0.032258317
000070 38 0d ef 3c 65 4d 08 be e1 b8 c6 3c 03 fa 8d 3d
       0.029181108 -0.13310774 0.024258079 0.069324516
000080 54 41 b9 bd 95 b6 bf 3c 24 42 18 3b b9 3e 9b bd
       -0.090456635 0.023402492 0.0023232782 -0.07580323
000090 89 75 27 bc 38 93 c0 3c ea 26 2c 3d 2b 0f 56 3d
       -0.010220894 0.0235077 0.0420293 0.05226056
0000a0 ec 7d af 3c bf 30 1c 3d 68 ba 5a 3d 62 7a d0 ba
       0.021422349 0.038132425 0.053400427 -0.0015905614
0000b0 bf 4e 44 3c ab 28 ce bc 7a 03 63 bc c4 7f 49 3d
       0.011981665 -0.025165876 -0.013855809 0.049194112
0000c0 2a 1f 93 bc 0e 9f 97 3c c2 43 6a 3d df 15 02 bc
       -0.017959196 0.01850846 0.057193525 -0.007939785
0000d0 21 05 f3 bc 5f 77 ce 3c e0 ce 37 bd 49 af 94 3d
       -0.029665532 0.025203405 -0.044875026 0.072599955
0000e0 5d 02 99 3d 64 c5 1f bd dd 5e 97 3d 16 61 be 3d
       0.07471154 -0.039006606 0.073911406 0.092958614
0000f0 71 72 d6 bd 20 35 27 3d 33 5c 3e 3d 85 34 8e bd
       -0.10471047 0.04082215 0.046474647 -0.06943611
000100 a2 3e 04 3b 19 46 31 bd ed 82 a9 bb 9b b8 fd 3c
       0.0020178934 -0.04327974 -0.0051730783 0.030971816
000110 c0 66 fd 3c 56 0d 71 bb be f4 a7 3c 15 db 0a bc
       0.030932784 -0.003678163 0.020502444 -0.008475085
000120 77 f4 63 bd f1 5a 70 bd 27 f5 4b bd 90 9d 2f bd
       -0.05565306 -0.05868048 -0.049794342 -0.042874873
000130 fc cd a1 bd 95 ff 5d bd d9 81 a1 bc ba d7 9e bd
       -0.079006165 -0.05419882 -0.019715236 -0.0775599
000140 30 94 6a bd 8c 49 26 3d 05 dc 93 bd 41 eb 8d bc
       -0.05727023 0.040597484 -0.072197 -0.017324092
000150 62 ae 71 3d 93 46 15 bd cb a0 4a bd ba aa 03 3d
       0.059004195 -0.036444258 -0.04946975 0.03214524
000160 1c 2c 1d bd 5d 9d 18 bd 23 c5 29 be 60 75 ab bb
       -0.038372144 -0.03725945 -0.16579108 -0.005232498
000170 dc 91 b5 bc a2 0b 48 be f7 b6 93 bd 53 a3 11 bd
       -0.022164278 -0.19535688 -0.07212632 -0.03555615
000180 0e 7f 1b be 42 75 b1 bd 41 7f 9e bd 3f 92 13 be
       -0.15185186 -0.08664943 -0.077391155 -0.14411257
000190 ed e0 8b be f7 33 80 be 68 1e e8 bd ca a5 32 be
       -0.27320042 -0.25039646 -0.113339245 -0.17446056
0001a0 86 ee db bd aa e7 1c bd 71 c3 a7 bd be b1 33 bd
       -0.10738854 -0.03830687 -0.08191574 -0.04387068
0001b0 3c de 37 bc d9 e8 c9 bd 0c bb b5 bd c1 22 01 bd
       -0.011222418 -0.09858865 -0.08873567 -0.031527285
0001c0 bc 8f 39 bd 2a ec 6a bd bc 17 d3 bd ef 66 88 bd
       -0.04530309 -0.05735413 -0.10307261 -0.06660258
0001d0 59 75 6d bd 60 7c 1c 3d 33 17 18 3d 4e c2 c2 bd
       -0.05797324 0.03820455 0.0371315 -0.09509717
0001e0 ec 2f a2 3d 6c 70 b1 3d a4 d3 6a bd 0a 70 a9 3d
       0.079192966 0.08664021 -0.057330742 0.08273323
0001f0 d0 6a 9f 3c e8 7a 86 bd 3b 36 06 3d 46 ad 54 bc
       0.019460112 -0.06566411 0.032766562 -0.012980765
000200 50 a8 3a be 80 fa c0 3d b6 78 f1 3c 85 be 28 be
       -0.18228269 0.09422779 0.029476505 -0.16478927
000210 74 fa e6 3d 6e 15 af 3c d6 cb cf bd e1 e1 ef bb
       0.11278239 0.021372523 -0.101463005 -0.007320628
000220 80 07 a7 3c 02 48 2d 3d 37 83 17 bd 30 f4 3a bc
       0.020389318 0.042305 -0.03699037 -0.011410758
000230 ac b9 97 3d 8d dc aa bd 60 3e 22 3c ec 26 34 3b
       0.07408461 -0.08342848 0.009902567 0.002748902
000240 e4 73 2f 3a cd b5 4e bd 75 6d 02 3d 1d fa 3c bd
       0.0006692989 -0.050466347 0.031842668 -0.046136964
000250 68 f6 e0 bc 30 19 26 bd 81 3b 23 bc 31 9f 5a 3c
       -0.027461246 -0.040551364 -0.009962917 0.013343618
000260 c7 77 cc 3c 62 8a 14 be 8e b5 05 3b 97 ff e5 3d
       0.024959458 -0.14505914 0.0020402404 0.112303905
000270 1d c7 8c bd 20 30 8d bd df 07 b4 3d f4 34 c5 bd
       -0.06873915 -0.06893945 0.08790564 -0.09629241
000280 5f 29 7c be f5 74 55 bd 54 2e 04 bc d2 07 2a 3c
       -0.24625157 -0.052113492 -0.008067686 0.010377841
000290 bb 68 1c bd e1 d1 14 bb a6 03 3c 3d d2 b6 a2 3c
       -0.038185816 -0.0022708105 0.045901917 0.019862566
0002a0 3c f7 8c bd 12 d0 f6 3d 21 81 60 3d d3 63 30 bc
       -0.06883094 0.12051405 0.054810647 -0.010765987
0002b0 14 35 f0 3a 94 d7 2e bc 88 2d ba 38 26 29 4e bb
       0.0018326365 -0.010671515 8.877652e-05 -0.0031457632
0002c0 c2 f5 4e bb f3 49 44 bd 61 a5 2c bd f9 6f da bc
       -0.0031579589 -0.047922086 -0.042149905 -0.02666472
0002d0 4e 11 7c 3d e8 6c e3 3c f5 37 07 bd 06 6f db 3c
       0.06153994 0.027761891 -0.03301235 0.026786339
0002e0 e9 db 84 bd da 85 2b bd b9 74 cc bb b7 12 d4 bd
       -0.06487257 -0.041875698 -0.0062395004 -0.10355132
0002f0 34 7a 89 bb 1c b3 a3 3c 32 d3 55 bd 15 f7 09 3d
       -0.004195476 0.019982867 -0.052203365 0.0336829
000300 3d d3 9b bc 60 4f 3e bc 1f 77 9d bd 45 2c 8a 3d
       -0.019021625 -0.011615604 -0.07688736 0.06746725
000310 43 d7 b1 bc d4 7e 42 bd c5 f2 f1 3c 2e e8 01 bd
       -0.02170909 -0.047484234 0.029534707 -0.031715564
000320 83 09 87 bd f4 6f 2a 3c 0f 02 4a bc 0a 31 e3 bd
       -0.06593611 0.010402668 -0.012329592 -0.11093338
000330 4f 32 c4 bb 5e 9e aa 3b 0c 84 b7 bd 7d 65 14 bf
       -0.0059874426 0.005206867 -0.08960733 -0.5796736
000340 7e 8a af 3c 6b 02 48 be 48 a3 c1 be 79 be 89 bc
       0.021428343 -0.19532172 -0.37819886 -0.016814457
000350 6d 46 f1 bd ed ab e0 be 80 f6 0c bd 31 5c 64 be
       -0.11781011 -0.4388117 -0.03441477 -0.22300793
000360 a2 1e b0 bb e9 55 a7 be 7a 36 5d be 10 11 60 3d
       -0.0053747455 -0.32682732 -0.21602812 0.054703772
000370 45 e0 5c be 6e 60 3c bd 58 8b 18 bd 3e ab ca bd
       -0.21569927 -0.0459904 -0.037242264 -0.09895943
000380 17 df da bc 9f c1 e7 3d 8a 5b e9 bc 4d 9e 13 be
       -0.026717706 0.11316227 -0.028486032 -0.14415856
000390 1d df a0 3d 30 56 bb bd 4a d6 b6 bd 2c 55 06 bd
       0.078550555 -0.09147298 -0.08927591 -0.03279607
0003a0 cf 33 ff bd 98 75 29 be ba 8b 36 3c 7f 8d 80 3d
       -0.124610536 -0.16548765 0.011141712 0.06276988
0003b0 7d 06 e3 39 64 a9 4e 3d 7e e5 72 bc 49 92 60 3d
       0.00043301648 0.050454512 -0.014825223 0.05482701
0003c0 6c 9f ba ba 4a f6 5e bc 73 d8 cb 3c 28 9d 9e bd
       -0.0014238185 -0.013608525 0.024883484 -0.07744819
0003d0 ff 1a 37 3d 0b 6a be bd cc d4 f3 bd 9d 38 da 3c
       0.04470348 -0.0929757 -0.11905822 0.026638323
0003e0 35 dd 00 bd de c4 ca bd 5b 77 27 be 6c 80 02 be
       -0.03146096 -0.09900831 -0.16354124 -0.12744302
0003f0 93 64 ea 3c 3c c0 45 bd e9 80 93 bc b2 c0 c2 3d
       0.02861241 -0.048279032 -0.018005805 0.0950941

encoder.2.bias f4 [128]
000000 55 48 5b 3d 50 0c ad bd d9 61 03 bd 18 2f 5c bd
       0.053535778 -0.08449614 -0.032075737 -0.05375585
000010 8c a3 d1 3c 0f a9 ed 3d d4 77 11 bd 27 5f 3c bd
       0.02559068 0.11604511 -0.035514668 -0.04598918
000020 5a 8a 3c 3d 40 fe 01 3c a1 3e fc 3b 01 fb 45 bc
       0.04603038 0.007934153 0.0076978956 -0.01208377
000030 5f e2 fb 3c 69 29 65 3d b8 44 88 bd 82 49 46 3d
       0.03074759 0.055947695 -0.06653732 0.048409946
000040 de e1 c0 bb 9b 54 77 3d 26 cf 6c 3d 3d fb 2b be
       -0.0058863005 0.06038342 0.05781474 -0.16795059
000050 d1 11 f1 b9 91 39 66 bd ed ca e2 3d c4 f2 b2 bc
       -0.00045980376 -0.056207243 0.11073861 -0.021844275
000060 d6 20 f8 bd 97 20 a0 3d 89 98 df 3b 46 18 e5 bc
       -0.12115638 0.07818716 0.0068236035 -0.027965676
000070 75 b9 f3 bc b5 2c c1 3d d8 24 3a bd 3a d4 28 bd
       -0.029751519 0.09432355 -0.045445293 -0.04121802
000080 ad b9 14 be c7 ed 57 bd 2e 45 6f 3d ad a1 03 bc
       -0.14523955 -0.052716997 0.058415584 -0.008034152
000090 56 64 2b bc 60 bf 1e 3e c5 6c f2 3d ca 3e c3 bb
       -0.010460934 0.15502691 0.118371524 -0.005958413
0000a0 ba 5c 30 bb 07 c9 83 bc 63 b0 b7 3c bf f4 b3 3d
       -0.0026910738 -0.016087068 0.022422975 0.08786916
0000b0 ba 7a bd 3d b9 d2 c1 bc e4 66 80 bd 9a 95 d7 3c
       0.09251924 -0.02366005 -0.06269625 0.026316453
0000c0 95 40 95 3d 75 62 77 3d 98 b7 78 3c 48 b6 07 bd
       0.07287709 0.06039663 0.015180491 -0.03313282
0000d0 f4 fe 10 bc de 70 11 bb a1 48 75 bd 21 01 d1 bc
       -0.008849848 -0.0022192518 -0.059883717 -0.025513234
0000e0 57 a3 cb bd 5e 97 6d 3d 3c ae 93 3d b2 6c 59 ba
       -0.09943264 0.058005683 0.07210967 -0.000829409
0000f0 f3 7b 83 bc b1 35 16 bd f4 c8 25 bd cc 41 2d bd
       -0.016050315 -0.036672298 -0.040474847 -0.042299077
000100 ef ae 90 3d 24 d6 f3 bb f8 7f 5b 3d b4 af 9a bd
       0.07064616 -0.007441299 0.053588837 -0.07553044
000110 ba 89 d2 3d 26 05 1e 3d 3c f7 b0 3d c7 7a 82 3d
       0.102801755 0.03857913 0.08640906 0.06371074
000120 27 ea 4c 3c cf 30 0f bd 70 ed a4 bc e8 a6 43 3b
       0.012506998 -0.034958657 -0.02013275 0.0029854123
000130 ae a3 9c 3c ef 78 56 3d 6e c8 42 bc da be 69 3c
       0.019121017 0.052361425 -0.0118886065 0.014266694
000140 d4 49 44 bd cb 99 4e 3d 40 7e 37 3c 97 b4 d7 3c
       -0.04792197 0.050439637 0.011199534 0.02633123
000150 e5 a1 f3 3c 90 13 1c be e3 af ed 3c 23 42 40 bd
       0.029740283 -0.15241838 0.029014533 -0.046938073
000160 55 95 91 3a 49 21 6a 3c 22 04 72 3d 34 ca f7 3d
       0.0011107126 0.014290162 0.059085973 0.12099114
000170 9e 58 14 3d 29 7f 77 3c 4e d8 b1 bb 20 ee 2d bc
       0.036217324 0.015106001 -0.005427397 -0.010615855
000180 67 2b 73 3c 2c 65 c9 3d ec 14 37 bd 68 d2 d2 3d
       0.014841891 0.0983375 -0.044697687 0.10294038
000190 2e 4e 74 bd 5c 50 c1 bc c0 7c 50 3b 52 6a 30 3d
       -0.05964487 -0.023597889 0.0031812638 0.043070145
0001a0 a6 75 51 3d be 53 c9 bc 4b f8 1b 3d 80 d9 9f 3c
       0.05113759 -0.024576064 0.038078588 0.019512892
0001b0 95 b7 ba 3d 17 da e9 bc b1 17 c2 3c c3 89 44 bd
       0.09117047 -0.028546376 0.023692938 -0.047982942
0001c0 83 27 9c bc 27 39 8c b9 d7 e3 b3 3d 37 9e 7e 3d
       -0.01906181 -0.00026745463 0.087836914 0.062162604
0001d0 e1 7b 06 bd ed 24 47 3b 10 f6 d8 3c 06 d8 69 3d
       -0.032832984 0.0030387 0.02648452 0.05709078
0001e0 7c d7 3b bd 62 40 16 bd 30 1a b8 3c fa cc eb bc
       -0.0458598 -0.036682494 0.022473425 -0.028784264
0001f0 48 3f 59 3c 4d e0 17 bd 3f 19 30 bd 0f 99 51 3c
       0.013259716 -0.037079144 -0.042992827 0.01279284

decoder.0.weight f4 [64, 128, 3, 3]
000000 5f 51 36 bd 8c 6a 8c bd fb 8b 80 bd 8f c6 ac bc
       -0.044511195 -0.0685626 -0.06276699 -0.021090774
000010 9b b0 a5 3b 03 0e 34 3d 7d 26 4f bd b4 87 8d bd
       0.0050564534 0.043958675 -0.050573815 -0.06910649
000020 57 f8 0d bd 2d b0 69 3d ea cf 72 bd b0 86 4d 3d
       -0.034660663 0.05705278 -0.059280314 0.050177276
000030 1a 90 02 3d 1c ea 19 bd 21 fc ac 3d fc 3f 65 bc
       0.031875707 -0.03757678 0.08446527 -0.013992306
000040 40 f7 a3 bd 42 e9 93 3d ea 37 af 3d 19 3a c6 3d
       -0.080061436 0.07222225 0.08555587 0.0967905
000050 36 d1 be 3d 31 48 14 3d 78 89 fb 3c 0a ca d7 3c
       0.093172476 0.03620166 0.030705199 0.026341457
000060 64 2e 88 3c c4 81 35 3d f8 55 80 bc 7c 8d 98 bc
       0.016623683 0.044313207 -0.015665993 -0.018622153
000070 bd fe bb bc 5c 50 b2 bc aa cb 87 3b 4a 00 e7 37
       -0.022948617 -0.021766834 0.0041441517 2.753748e-05
000080 bf 8c 25 bc fa e9 86 3b f5 4b 04 bd b0 7d 18 bd
       -0.010104357 0.0041172476 -0.032299 -0.03722924
000090 e5 11 d5 bd f6 b6 33 bd d6 80 d8 bc 1d 2f bf bc
       -0.10403804 -0.043875657 -0.026428621 -0.023337895
0000a0 aa 92 a3 3c 78 99 b9 bc b6 05 86 bd f7 4f 59 bd
       0.019967396 -0.022656187 -0.06544058 -0.053054776
0000b0 0d 8a ac bb 48 66 89 3c 53 fd 4b 3d ef 14 1c bd
       -0.0052654804 0.016772404 0.049802136 -0.0381059
0000c0 15 ac a2 3d 42 f5 ae 3d 50 ad 28 3d 94 5e 76 3b
       0.07942978 0.08542873 0.04118091 0.0037592994
0000d0 72 0d 09 3d ae 75 5f bd d0 a4 f4 bb ec 33 8f 3c
       0.033460088 -0.054555587 -0.0074659362 0.017480813
0000e0 1e 1d ee bc e4 37 26 3c 22 b7 1f 3b a0 5b b5 3c
       -0.029066619 0.010145161 0.002437063 0.022138417
0000f0 39 da b8 bc 23 f6 b1 bc 8c 34 9b 3c b8 94 24 3c
       -0.022564994 -0.021723812 0.018945955 0.010045223
000100 dc da 5d bc d2 4c c9 ba 19 d9 94 bc 32 cf 83 3b
       -0.01354095 -0.0015357977 -0.018169926 0.0040225023
000110 45 81 9e 3c db 00 81 3c 19 1c c7 bc 63 2e 96 3b
       0.01934875 0.015747478 -0.02430539 0.0045831664
000120 88 00 66 3b 20 c4 9f 3a e0 80 28 bd e2 73 a1 3c
       0.0035095531 0.0012189187 -0.04113853 0.019708578
000130 89 55 9f 3d 54 e7 f2 3c 34 b0 53 3d 9b de 80 3d
       0.077799864 0.029651321 0.051681712 0.062924586
000140 dc ed a9 3c 97 3b 84 bd cd e5 10 bd 2d 75 00 bc
       0.020743303 -0.06456678 -0.035375405 -0.007840437
000150 a8 20 ba bc 93 05 a3 3c 86 e0 72 3b 6a ec 1e bc
       -0.02272065 0.019900119 0.0037060096 -0.00969992
000160 ab 6b 31 bc 77 16 f2 bc 3c 63 61 3d ae fc 37 bb
       -0.010828893 -0.029551728 0.055026278 -0.0028074193
000170 47 7e ac 3c 78 0b 1d 3b 87 58 45 bc 56 e2 32 bc
       0.021056307 0.0023963135 -0.012045032 -0.0109182205
000180 5c 4c a9 3c 79 f2 70 bb 56 ff af 3b eb d6 68 bc
       0.020666294 -0.0036765619 0.0053710146 -0.014211397
000190 ba d0 73 bc c3 d2 d9 bb 28 44 f5 bc 30 55 51 3c
       -0.014881307 -0.006647439 -0.029939726 0.012776658
0001a0 71 ce 1d bc bc 2f 6e 3c 18 36 28 3c 50 0d b6 3b
       -0.009631739 0.014537748 0.010266803 0.005555786
0001b0 53 fc 51 bd 8c d1 92 3b fd 45 bb bd 0f b1 e4 3a
       -0.051266026 0.0044805463 -0.091442086 0.0017447787
0001c0 e2 df 54 bb 96 b8 39 3d 13 e3 8a bb 9f 14 59 3c
       -0.0032482077 0.04534205 -0.004238495 0.013249545
0001d0 56 71 7c bb 16 2f ba 3b af 4a 94 bb 67 26 b5 bd
       -0.0038519702 0.0056818826 -0.0045255045 -0.08845215
0001e0 fd 67 0c 3d 5b 7c ee 3c a5 03 38 bb 0a 59 d1 bc
       0.03427886 0.029112032 -0.0028078344 -0.025555152
0001f0 93 af b1 3b 60 c1 a9 bd e1 26 95 3c b4 bc ca 3c
       0.0054225414 -0.082888365 0.018207015 0.024748184
000200 e9 19 4e 3d 17 0c 53 3d 3d 4a e3 3c fe 7d d1 3c
       0.05031768 0.0515252 0.02774536 0.025572773
000210 98 c6 4d 3d bc bb 4b 3d e6 8b c3 3c ac 8e 1c be
       0.050238222 0.049739584 0.02387042 -0.152888
000220 97 3b f0 bd 45 f7 b5 bd c8 e2 44 bd d8 d8 8d bd
       -0.11730116 -0.088850535 -0.048067838 -0.06926125
000230 ec 24 2e bd 29 13 02 be 5f a4 e1 bd 4f 73 ac bd
       -0.04251568 -0.12702622 -0.110176794 -0.08420431
000240 ab 07 3e be 05 66 66 bd 52 1f 06 be 5f dc e8 bd
       -0.18557613 -0.056249637 -0.13097885 -0.113701575
000250 7b c2 25 bd 2c 89 b3 bc 29 f8 dc bd 84 f5 88 bc
       -0.040468674 -0.021915995 -0.1078952 -0.016718633
000260 24 1b 70 bd 11 ab a0 bd f2 44 06 bd dd 5c ec bd
       -0.058619633 -0.07845128 -0.032780595 -0.1154115
000270 4d 18 2c 3a 1f a3 41 bb 46 2e 4c bd 8a 66 b8 bc
       0.00065649004 -0.002954669 -0.049848817 -0.022509832
000280 42 a4 10 3d f7 2a af bc 24 db 21 be 47 0e 8e bd
       0.0353129 -0.021382792 -0.15806252 -0.06936317
000290 6f 44 d2 bd fc 46 27 3d bd de c2 3d 84 c3 1d 3d
       -0.10266959 0.04083918 0.0951514 0.038516536
0002a0 03 45 33 3d 42 16 5e 3d e5 45 82 3d 45 07 aa bd
       0.043766987 0.054220445 0.063609876 -0.08302168
0002b0 6d 97 fa bc 1c 57 1b bd 1e 31 1c bd e7 3f ce bc
       -0.030589784 -0.03792487 -0.03813278 -0.025176955
0002c0 ec fe 9d bb 19 c5 d4 bc 5c 74 5b bc 9c 0c ab bc
       -0.004821649 -0.02597289 -0.013394441 -0.020880036
0002d0 73 7d 6b bd c4 60 86 b9 70 dd 52 bc 33 8b d9 bc
       -0.057492685 -0.00025630568 -0.012870178 -0.026555633
0002e0 64 32 64 3b 9c 96 8f bc 1c b0 c3 bd 9a 6a a8 bd
       0.0034820074 -0.01752787 -0.095550746 -0.08223458
0002f0 5b 9c 8b bd d7 4a d2 bc 63 b7 bc 3b fa 29 c7 bc
       -0.06816932 -0.025670452 0.005759166 -0.024312008
000300 84 1e 00 3d 86 5e 5c bb 2a fd d5 bb c8 d0 a5 3c
       0.031279102 -0.0033625676 -0.0065304236 0.020241156
000310 57 44 80 bb 5e a1 dc 3b 89 66 af 3c 46 28 8e 3d
       -0.0039143967 0.0067331037 0.021411197 0.06941275
000320 11 44 56 bd cd 40 65 3d 3b 39 de 3d 88 da e3 3c
       -0.052311007 0.055970002 0.108507596 0.027814165
000330 97 25 51 3d e2 14 59 3d f3 e6 24 bd ff a2 fa 3b
       0.05106124 0.05299843 -0.040259313 0.007648825
000340 a0 da 05 3c b9 6c c7 bb 72 0d 99 bc 03 e9 b7 3c
       0.0081698 -0.006085959 -0.018683169 0.022449976
000350 ff e6 03 3c 8f fd fe 3b b4 38 b2 3c 50 32 47 3c
       0.008050679 0.0077816914 0.021755554 0.0121579915
000360 f9 29 3e be 5d 27 80 bd b2 50 29 be 99 b9 b8 bd
       -0.18570699 -0.06257508 -0.16534689 -0.09019775
000370 61 86 34 bd 79 5f cd bd 41 86 31 be ad 86 40 bd
       -0.044073466 -0.100279756 -0.1733637 -0.047003437
000380 e3 fa ae bd b4 03 f3 bd df 12 ba bd 02 cf eb bd
       -0.085439466 -0.11865941 -0.090856306 -0.11514093
000390 f3 1a 91 bd 48 99 17 bc 8e 1d c0 bc 85 9b c2 bd
       -0.07085218 -0.009252854 -0.023451593 -0.09502319
0003a0 f7 41 98 bd 4d 4a 85 bd 1b c9 1e be 8a 15 18 be
       -0.07434457 -0.065083124 -0.15506403 -0.14851967
0003b0 f8 2d 53 be 9e e8 1a be 0d 7c 22 be 40 15 b5 bd
       -0.20623004 -0.15127799 -0.15867634 -0.08841944
0003c0 9c 48 05 be 48 48 2c be b3 f9 da bd 00 06 f9 bc
       -0.1301598 -0.16824448 -0.106921576 -0.030398369
0003d0 88 99 d3 bc e7 69 10 bd 67 6b b7 bc a9 6f e5 bc
       -0.025830045 -0.035257246 -0.02239008 -0.028007345
0003e0 6c b0 ea bc 8c 0c 40 3c ef b6 81 3b 35 58 75 3c
       -0.028648578 0.011721741 0.003958575 0.0149746435
0003f0 3c a4 f5 bc 6a c0 f9 bb 2e 4f 70 bc f8 2d 16 bd
       -0.02998554 -0.0076218145 -0.014667315 -0.036664933

decoder.0.bias f4 [64]
000000 e6 d7 d4 3d 32 36 14 bd 1d bf a1 3d 35 70 8c bc
       0.10392742 -0.036184497 0.0789778 -0.017143348
000010 41 23 68 3d 7e d4 0d 3e f8 fa 6a 3d 5d 74 74 bc
       0.056674246 0.1385059 0.05736825 -0.014920321
000020 e3 cb f5 3c 96 6e 60 bb 7d 69 9d 3d ce 75 40 3e
       0.030004447 -0.0034245602 0.07686136 0.18794939
000030 c0 19 64 3d 1e c6 86 3d 60 47 b1 3d f9 74 e6 bc
       0.05568862 0.065807566 0.08656192 -0.028131949
000040 8b 05 26 bd b6 23 98 3d 38 f1 a5 3d ce 73 d8 3d
       -0.04053263 0.07428686 0.081026495 0.10568963
000050 61 71 cf 3d 97 49 8e 3d 1f 3c a6 3d b6 e6 2e 3e
       0.10129047 0.0694763 0.08116936 0.17080197
000060 a9 d6 14 bd 40 3e 82 3d c7 96 6f 3d d3 de a9 3d
       -0.03633753 0.063595295 0.0584934 0.082944535
000070 5a 34 a0 3d e1 c6 0b 3e e6 0f b5 3d 2c ca 3a 3b
       0.07822485 0.13650085 0.08840923 0.0028501851
000080 c7 b4 05 3e 5d 45 87 3d 28 5f 03 3e 63 aa 10 3e
       0.13057242 0.06605027 0.12829268 0.14127497
000090 1d 05 07 bd d5 d3 ab 3d 56 ea cf 3d c6 d9 05 bc
       -0.03296386 0.08390013 0.10152118 -0.008169597
0000a0 4a fe fc 3c 2b 8b 7c 3d aa bc 3e 3d 1d 98 79 bd
       0.030882973 0.06165616 0.046566643 -0.060936082
0000b0 33 8a 2c 3d 9a 93 92 3d b2 06 80 bc bd 9b 9a 3d
       0.042123985 0.07157059 -0.015628193 0.07549236
0000c0 71 d4 45 3d b1 b8 c9 3c 18 7a 20 bd 6b 6e 29 3e
       0.048298303 0.0246242 -0.039178938 0.16546027
0000d0 65 15 cc 3d 0e b0 7c bd 0b 8c 2f 3d 9d e6 15 3b
       0.09965018 -0.061691336 0.042858165 0.0022873052
0000e0 b9 68 f1 bc 76 fe fc 3d a9 35 1f 3d 77 3b 2d 3d
       -0.029468881 0.12353222 0.038869534 0.04229304
0000f0 3e 65 af 3d fc e6 ac 3d 8a f8 a9 3d a4 80 88 3d
       0.08564232 0.08442494 0.08299358 0.06665161

decoder.2.weight f4 [1, 64, 3, 3]
000000 e4 cc db bd a4 36 5a bd 3a dc d4 bd a2 56 8d bc
       -0.10732439 -0.053274766 -0.103935674 -0.017253224
000010 2c 28 9e 3c 54 45 89 bc aa 42 f1 bc 09 82 0e 3c
       0.019306265 -0.016756691 -0.029450733 0.008697995
000020 dd 4a 3e bd 0a b4 ca bc 65 d0 c6 3c 08 13 5c bc
       -0.046458114 -0.024744052 0.024269292 -0.013432272
000030 5e 46 14 bd ba 37 41 bd 4e bd 0e 3d 22 4a e4 3c
       -0.03619992 -0.047172286 0.034848504 0.02786738
000040 8e 0d 28 3c a9 67 7f bc 86 e9 b9 bd 6b bf 59 bd
       0.010257138 -0.015588679 -0.09077744 -0.053161066
000050 f2 23 89 bd 70 e7 21 bd c5 9f 06 3d a1 83 f7 bb
       -0.06696309 -0.039527357 0.03286721 -0.007553533
000060 cb fb 97 bd 13 16 65 bd 9d 0a 0d bd 94 b4 86 bc
       -0.074210726 -0.055929255 -0.03443395 -0.016443528
000070 78 cf d8 3c 5f 82 e9 bb b0 74 cd bc a3 09 22 bd
       0.026466116 -0.007126137 -0.025080055 -0.03955997
000080 0c 6c 46 3b 37 21 3d bd 6f 58 f0 bb 14 03 9a 3b
       0.0030276803 -0.046174254 -0.007334761 0.004700074
000090 cb 4a cc 3c eb d4 19 3d 16 79 de 3d eb 6e db bb
       0.024938008 0.03755657 0.10862939 -0.006696572
0000a0 8d 51 b8 3b f8 11 8a 3c 68 eb bb bc 75 29 3b 3d
       0.005624956 0.016854271 -0.022939399 0.045693833
0000b0 35 3c fd 3d 33 3a e5 bd e4 22 8d bc 8a 14 17 be
       0.12364999 -0.11192741 -0.017228551 -0.14753929
0000c0 e2 b7 0b 3d fe ec 01 3d ae d5 0e bd b8 17 23 3a
       0.03411091 0.031720154 -0.03487175 0.0006221491
0000d0 26 dc f4 bc 3d 58 e0 bd f9 a3 64 bc 93 49 6a 3d
       -0.029890131 -0.1095433 -0.01395511 0.057199072
0000e0 2b 5e 46 3d 20 8a e9 3c 69 f4 04 bd 80 ce 39 3d
       0.04842965 0.028508246 -0.03245965 0.04536295
0000f0 2a b5 62 3e 06 65 a4 3d c8 92 30 3d 8d 8d 87 3c
       0.22139421 0.08027081 0.04310873 0.016546989
000100 68 ab d6 3c f1 4f 21 3d 44 56 11 3d ba e6 b3 bc
       0.02620478 0.03938288 0.03548266 -0.021960605
000110 68 63 e9 3c 1f ff 48 bc 57 96 a7 3c a1 bb a0 3b
       0.028489783 -0.012267857 0.02045743 0.0049051796
000120 cb fb 46 bc 12 56 97 bb 9f c1 6f 3d a5 80 1b 3b
       -0.012144993 -0.0046184147 0.05853426 0.00237278
000130 30 d2 1f bd 00 ec e0 3c 85 d5 b1 3d a5 58 d6 3c
       -0.03901881 0.027456284 0.08683304 0.026165316
000140 7d ce 1e 3e 20 71 d6 bc 79 e8 ca 3b d1 35 90 bc
       0.15508457 -0.02617699 0.0061922637 -0.017603787
000150 52 31 2a 3d a5 03 ab bc 31 64 6f 3c b8 06 1b 3d
       0.04155094 -0.020875761 0.01461129 0.037848204
000160 f1 f2 20 bc e8 da de 3c d7 7e 9a 3d 0b 8f f8 3c
       -0.009823547 0.027203992 0.07543724 0.030341646
000170 b3 0c 1d 3e 9e 8e 2f 3c 59 ac 2d bb 34 8d 9b 39
       0.15336876 0.010715155 -0.0026500432 0.00029669108
000180 31 bd 8a 3c d5 bb 92 3c 5a 02 45 3d 8c a5 1a 3e
       0.016935917 0.01791183 0.048097946 0.15102214
000190 86 58 28 3d c6 e9 71 bd 5a 8f 1e 3c 48 e6 09 3c
       0.041100048 -0.059060834 0.009677732 0.00841672
0001a0 e1 2f b7 bd c2 f5 ed 3d e0 48 02 3c 79 1c 38 be
       -0.08944679 0.1161914 0.007951945 -0.17979611
0001b0 93 a6 69 3e 7b 62 6d 3d 01 4c 87 3d 62 6f 22 bc
       0.2281745 0.057955246 0.066062935 -0.009914251
0001c0 ae 77 ee bc 50 54 84 3c 26 b0 b2 3d 26 7e 22 3c
       -0.029109802 0.016153485 0.08725004 0.009917771
0001d0 0e cb c9 3b f8 f3 64 3c fb 9d 85 3d ea d3 21 3e
       0.006158239 0.013974182 0.06524273 0.15803495
0001e0 25 a5 c9 bc 6f 52 ba 3a 00 8e 49 3c 9d 10 2b 3c
       -0.02461488 0.0014215241 0.012301922 0.010440973
0001f0 68 80 13 3c 0c 67 7f 3d 5d 6d d7 3d b2 46 8c 3d
       0.009002782 0.062354133 0.10518906 0.068494216
000200 13 03 dd 3d a8 20 fd 3c 52 38 c4 ba c6 1a 55 3d
       0.10791602 0.03089936 -0.0014970398 0.052027486
000210 9b 42 9e 3d b5 87 78 3c e4 60 c1 3d 85 27 eb bc
       0.07727548 0.015169074 0.094423085 -0.028705368
000220 f7 23 42 bd 71 09 3e bc 7f 25 62 3c 5c 51 32 3d
       -0.04739758 -0.011598931 0.013802885 0.04353462
000230 80 70 32 bc 35 5a 47 bc 9f b4 7e 3c 4b e8 85 3b
       -0.01089108 -0.012167503 0.015545993 0.0040865294
000240 f9 59 1a 3d 32 bd 5c 3d aa 33 fb 3c 08 98 c9 3b
       0.03768346 0.05389137 0.030664284 0.0061521567
000250 70 13 bc ba 85 88 94 3c 7b be 20 bc 66 d2 c3 3c
       -0.0014349055 0.018131504 -0.009811039 0.023904037
000260 53 1e 04 3d db f9 e2 3d 19 cf 5b 3d 76 19 52 bd
       0.032255482 0.110828124 0.0536643 -0.051293813
000270 62 22 96 3c 40 e8 74 bc fe 64 84 bd 8b 4f 91 3c
       0.018326942 -0.014947951 -0.06464575 0.017738124
000280 4e 8b b3 bc 77 09 8f bd d9 fc d5 3d 73 45 51 bc
       -0.021917012 -0.06984227 0.104486175 -0.012772906
000290 1c 47 e1 3c 11 b5 38 3d 14 0e 15 3b 83 e2 63 bc
       0.027499728 0.045094553 0.0022743987 -0.013908985
0002a0 fb f0 88 3d bb 85 35 3d 05 7f 9c 3d dc 73 e2 bd
       0.066865884 0.04431699 0.076414146 -0.11057255
0002b0 19 09 14 bd 72 0e b0 bd b7 69 4f bd 75 28 87 3d
       -0.03614149 -0.08596505 -0.050637927 0.065995134
0002c0 0c 98 4a 3b ae e5 f8 bd 23 9e 17 3c 6d 4f ba bc
       0.003091338 -0.12153183 0.009254011 -0.022742951
0002d0 fb af 5e bd df 15 b5 bd 69 da ad bd 2c 5a 03 be
       -0.054367047 -0.08842062 -0.08488924 -0.12827367
0002e0 f8 0b 98 bd 93 a0 90 bd 4b 29 65 be c5 1c c0 bd
       -0.07424158 -0.07061877 -0.22379033 -0.09380487
0002f0 65 f4 7b be 59 27 19 3e a1 26 b1 3d ab 75 e0 3d
       -0.24604948 0.14956416 0.08649946 0.109599434
000300 6d 26 a4 3d 2a 72 0b bb ef f6 0b 3d ef c9 15 3e
       0.08015142 -0.0021277764 0.03417104 0.14627813
000310 dc 7b cf 3c 14 36 ae 3d 55 8f 67 b9 52 c6 fd 3b
       0.025327615 0.08506408 -0.00022083272 0.007744589
000320 8c 11 bd 3d 67 ca f5 3c af e4 8f bc e4 82 bc 3c
       0.092318624 0.03000374 -0.0175651 0.023011632
000330 29 e6 d0 3d aa 09 6e 3d b1 2a ce 3d e1 c1 93 3e
       0.102001496 0.058114685 0.100667365 0.28858855
000340 59 a7 37 bb 5c 18 d0 bc a8 11 8a 3d ec 9f 86 bd
       -0.002802333 -0.02540224 0.06741649 -0.065734714
000350 23 7f 1c bd 8b 29 67 3d b5 ac b2 bd 55 eb 22 be
       -0.038207185 0.056436103 -0.087243475 -0.15910085
000360 22 5a 3e bc c8 97 82 bb 3a 30 1a bd 71 12 1b 3d
       -0.011618169 -0.003985379 -0.03764365 0.037859384
000370 25 88 85 3c b3 03 9c bb 9e 89 60 bc f5 41 de 3c
       0.01630027 -0.004761183 -0.0137046855 0.02713106
000380 3f ce db ba 82 94 0c 3e 63 06 04 bd e4 1a 88 3d
       -0.001676984 0.13728526 -0.032232653 0.06645754
000390 36 6c 49 bb 32 44 06 bd f8 49 b8 39 57 6b 41 3d
       -0.0030734665 -0.03277988 0.00035150326 0.047221508
0003a0 05 9a 7a bc f5 59 cb bb 44 b7 18 be f7 85 57 be
       -0.01529551 -0.006205792 -0.1491366 -0.21047197
0003b0 49 f2 92 be 8c 6c 31 be ac 07 0b be 87 9c 79 be
       -0.28700474 -0.17326564 -0.13577145 -0.24376117
0003c0 90 08 68 be d1 ce 67 be 3c 59 f4 be 85 8b 48 3e
       -0.22659516 -0.22637488 -0.4772433 0.19584472
0003d0 a8 ef 32 3d 67 28 56 3d f6 c4 91 3d 00 70 a8 3c
       0.043685585 0.052284624 0.071176454 0.020561218
0003e0 73 98 e5 bb 4e 72 ae 3d c0 f3 bf 3d dd a0 c3 3d
       -0.0070066988 0.08517896 0.093726635 0.095521666
0003f0 7e e3 35 3d e5 09 f3 bc 52 01 79 3d 0c 57 b0 ba
       0.044406407 -0.029667804 0.060792275 -0.0013453676
