Model/Train_3/colorectal_segmentation_model (2).pth (torch, 603784 bytes, 7 tensors)

encoder.0.weight f4 [64, 3, 3, 3]
0	0xbda7f9af	-0.0820192
1	0x3d27e58b	0.040990394
2	0x3cdf8192	0.027283464
3	0x3e13cc4c	0.14433402
4	0xbe23c36e	-0.1599252
5	0x3d844029	0.0645755
6	0xbb76cb4f	-0.0037657802
7	0x3ce78ece	0.028266337
8	0x3e397967	0.18112718
9	0x3e162ac1	0.14664747
10	0x3e04ef63	0.12981944
11	0x3e28fe27	0.16503201
12	0xbe4f411c	-0.20239681
13	0x3c44feae	0.012023611
14	0x3d93117c	0.07181069
15	0xbe344238	-0.17603385
16	0xbe1c88eb	-0.15286605
17	0x3ca26e9e	0.019828137
18	0xbd543be3	-0.051814925
19	0x3c758191	0.014984504
20	0xbd2a54a6	-0.041584633
21	0xbc943eb8	-0.018096313
22	0xbe53f4b3	-0.20698814
23	0xbd3ae322	-0.045626767
24	0xbc8d52ec	-0.017251454
25	0x3e17a385	0.14808472
26	0x3e365e08	0.17809308
27	0x3e174a31	0.14774396
28	0xbd11c6ee	-0.035590105
29	0x3d15e185	0.036592025
30	0xbd9c7412	-0.07639326
31	0xbdf8532d	-0.121252395
32	0x3c0d90da	0.008640492
33	0x3de8ea1b	0.11372777
34	0x3dbe8346	0.09302382
35	0xbd611dbb	-0.054959994
36	0xbd4d063f	-0.050054785
37	0xbd632282	-0.05545283
38	0x3dc87fe4	0.09790018
39	0x3e1a8d91	0.15093066
40	0x3d50cb33	0.050975036
41	0x3e10734c	0.14106482
42	0x3d0643e6	0.032779597
43	0x3d91f7ce	0.07127343
44	0x3e4cc925	0.19998606
45	0xbdd5e8dd	-0.10444806
46	0xbd09f96e	-0.03368514
47	0xbe364a1c	-0.17801708
48	0xbe0bb49f	-0.1364312
49	0xbe30d17a	-0.17267409
50	0xbda5d073	-0.08096399
51	0xbde0c442	-0.10974933
52	0xbda2b1b8	-0.079440534
53	0xbc6c9ced	-0.014441711
54	0x3d3d540d	0.046222735
55	0x3e35446d	0.17701884
56	0x3d6aac4d	0.057293225
57	0x3e319fa5	0.17346056
58	0xbd1cd30c	-0.038287207
59	0x3c2e5280	0.010639787
60	0xbe3fc3e6	-0.18727073
61	0xbddf4af7	-0.1090297
62	0xbe73c441	-0.23805334
63	0xbe2e3c81	-0.17015268
64	0x3e1f15f1	0.15535714
65	0xbc72cf94	-0.014819998
66	0xbe346b5f	-0.17619084
67	0x3dc8f62b	0.09812578
68	0xbe17e813	-0.14834623
69	0x3d775730	0.060385883
70	0xbe27149c	-0.16316456
71	0xbdabf1c3	-0.08395722
72	0x3b8dc798	0.004326772
73	0xbd08a19a	-0.03335724
74	0xbe2e127d	-0.1699924
75	0x3e288bd2	0.16459587
76	0xbe18981b	-0.14901774
77	0xbc032bc0	-0.008006036
78	0xbd7deb64	-0.061992064
79	0xbe7cfebc	-0.24706548
80	0x3dc345fe	0.09534834
81	0x3e2d8502	0.1694527
82	0x3de91785	0.11381439
83	0x3d47fc7f	0.048824783
84	0xbd9a62b1	-0.07538355
85	0xbdabe04a	-0.08392389
86	0x3d5469ee	0.051858835
87	0x3e143c7a	0.14476195
88	0x3e1ba765	0.15200575
89	0xbcc9a4fb	-0.024614802
90	0xbe64336c	-0.22285241
91	0x3c4d12c5	0.012516682
92	0xbe17c958	-0.148229
93	0xbd3f9910	-0.04677683
94	0xbe01707b	-0.12640564
95	0x3d3635f6	0.044485055
96	0x3e34a746	0.17641935
97	0x3cfad5d0	0.030619532
98	0xbe30b645	-0.1725703
99	0xbda13cbd	-0.07872913
100	0x3e0abd26	0.13548717
101	0xbdf40aff	-0.1191616
102	0xbde95ff7	-0.11395257
103	0xbd845394	-0.06461254
104	0xbdd67c78	-0.10472959
105	0x3d3f6ef7	0.046736684
106	0x3e0c0de5	0.13677175
107	0x3d1ec43c	0.038761362
108	0xbe0a0c7b	-0.13481323
109	0x3dcb481f	0.099258654
110	0x3e20c2ad	0.15699263
111	0x3e0ea951	0.13931777
112	0xbdb326b8	-0.087476194
113	0xbd4f7dd4	-0.05065711
114	0xbe3f9e66	-0.18712768
115	0xbe02ecb2	-0.12785605
116	0xbe1e7e6d	-0.15477915
117	0xbd92fa4f	-0.07176649
118	0x3dc609de	0.09669851
119	0xbce3d831	-0.027813049
120	0xbd1685a4	-0.036748543
121	0x3d8415ac	0.06449446
122	0x3e40ce30	0.18828654
123	0xbbe7d39d	-0.007074787
124	0x3db84663	0.089978
125	0x3cd73e1d	0.026274735
126	0x3e3618c6	0.17782888
127	0x3d794fbc	0.060867056
128	0xbda7db03	-0.0819607
129	0x3defafaa	0.11703427
130	0xbdddee1e	-0.10836433
131	0xbd60d800	-0.054893494
132	0x3e48fd7a	0.19627944
133	0xbe425666	-0.18978271
134	0xbe6d79a3	-0.23190932
135	0x3dccf8dc	0.10008404
136	0x3de58282	0.11206533
137	0x3dce8605	0.10084156
138	0x3d1d50d6	0.03840717
139	0x3d047284	0.032335773
140	0xbda9f629	-0.082989044
141	0xbded2abe	-0.11580418
142	0x3e0418cb	0.12900083
143	0xbd5c9a0f	-0.05385786
144	0xbca51b48	-0.02015461
145	0x3d96b242	0.07358219
146	0xbcb78b1f	-0.022405205
147	0x3dcd4f7d	0.10024927
148	0xbd7bbf05	-0.061461467
149	0xbe08c17b	-0.13355057
150	0xbe283535	-0.16426547
151	0x3d7f1a34	0.06228085
152	0xbd98d8af	-0.07463204
153	0x3e11892b	0.14212482
154	0xbdcaace8	-0.098962605
155	0x3e07c7eb	0.13259856
156	0x3c70c2d4	0.014694888
157	0x3ca72314	0.020402469
158	0xbe300a03	-0.17191319
159	0x3d46e596	0.048558794
160	0xbdd5bc3b	-0.10436293
161	0xbdac021d	-0.083988406
162	0xbc68cd75	-0.014209141
163	0x3dd20cf9	0.102563806
164	0x3db4131d	0.08792708
165	0x3c64fcc6	0.0139762815
166	0x3df59943	0.11992123
167	0x3d4f1935	0.05056115
168	0x3deb79bb	0.114978276
169	0xbc004ab9	-0.007830315
170	0xbcd3ab38	-0.02583848
171	0xbdffb0c1	-0.12484885
172	0x3cbb0dfd	0.022833819
173	0xbd8eb516	-0.06968133
174	0xbd12c7bf	-0.035835024
175	0x3df5ed5d	0.12008164
176	0xbe5301da	-0.20606175
177	0xbd51d34e	-0.051226906
178	0xbe6bf82c	-0.23043889
179	0xbdec87e6	-0.11549358
180	0xbdb1000a	-0.086425856
181	0x3b87d559	0.004145306
182	0x3d83c25d	0.06433556
183	0xbe14f2fe	-0.14545819
184	0x3d95897c	0.07301614
185	0xbe397071	-0.18109299
186	0x3d503729	0.050833855
187	0xbbdb8753	-0.0066994815
188	0x3e17c446	0.14820966
189	0xbd1eace0	-0.038739085
190	0x3da78e86	0.08181481
191	0xbe1a6272	-0.15076616
192	0x3d09b3ac	0.033618614
193	0xbdf45356	-0.119299576
194	0x3e24b8ca	0.16086116
195	0xbe0fa8b5	-0.140292
196	0x3e1a2394	0.15052634
197	0xbd3274c8	-0.043568403
198	0xbca9da3d	-0.020733947
199	0x3c9643dc	0.018342905
200	0x3d0ce12a	0.03439442
201	0xbd093d8f	-0.033505972
202	0x3dc76f39	0.09738011
203	0xbdafc62a	-0.08582719
204	0xbc1b48b5	-0.009477784
205	0x3d8cfb07	0.06883817
206	0x3ccc1a97	0.024915023
207	0x3e5e4393	0.21705465
208	0x3d162ca8	0.03666368
209	0x3cd03df0	0.02542016
210	0xbd238b5b	-0.03992782
211	0xbe0f04cf	-0.13966678
212	0x3c93bd72	0.01803467
213	0xbe9edd2f	-0.31028125
214	0xbe09705f	-0.13421772
215	0x3e6b24ac	0.22963208
216	0x3e17e0e6	0.14831886
217	0xbdad4cf9	-0.08461947
218	0xbe05f387	-0.1308118
219	0x3c84077c	0.01611685
220	0x3e15904b	0.14605825
221	0xbd09ed84	-0.03367378
222	0x3e0cf4e0	0.13765287
223	0x3cc007ba	0.023441184
224	0x3d6e4847	0.058174398
225	0xba6e9ec0	-0.0009102635
226	0x3e14035f	0.14454411
227	0xbe6e5b6f	-0.23277067
228	0xbd2d98bc	-0.042381987
229	0x3e1cd152	0.15314224
230	0xbd45f5dc	-0.048330173
231	0xbe176d7f	-0.14787863
232	0xbe533357	-0.20625053
233	0xbe55115a	-0.208074
234	0xbd062b0c	-0.032755896
235	0x3c345fa4	0.011009131
236	0xbe078727	-0.1323515
237	0xbdd3c5fe	-0.103404984
238	0x3da11415	0.078651585
239	0xbd06db99	-0.03292427
240	0x3e2c1bab	0.1680743
241	0xbe4d4942	-0.20047477
242	0x3d5775d9	0.052602623
243	0xbdd3075d	-0.10304139
244	0x3b7d0d65	0.003861272
245	0xbdd53d81	-0.104121216
246	0x3df893cd	0.12137566
247	0xbd831719	-0.0640089
248	0x3d82226c	0.06354222
249	0xbded8ff0	-0.115997195
250	0xbdecd2ad	-0.11563621
251	0xbd23fe75	-0.04003759
252	0x3ddfbb03	0.109243415
253	0xbc10b250	-0.0088315755
254	0xbd179c2e	-0.03701418
255	0xbd3f5d16	-0.046719633

encoder.0.bias f4 [64]
0	0xbe201010	-0.15631127
1	0x3e3bbe20	0.18334246
2	0xbdbd6449	-0.092476435
3	0xbe31ccc8	-0.17363274
4	0x3e28ad84	0.16472441
5	0xbe057451	-0.13032652
6	0xbe5f659f	-0.21816109
7	0x3c19c636	0.009385636
8	0x3cc23870	0.023708552
9	0xbe08a8e8	-0.13345683
10	0x3d954d85	0.07290176
11	0xbcd0e1fd	-0.025498385
12	0x3e1f678e	0.15566847
13	0x3e18014e	0.14844248
14	0x3d7bfdaf	0.06152123
15	0x3dffbd0d	0.124872304
16	0xbdd35658	-0.10319203
17	0x3e3e1700	0.18563461
18	0x3e0602fe	0.13087079
19	0xbe18f834	-0.14938432
20	0xbd83bde5	-0.06432704
21	0x3cf20b33	0.029546356
22	0x3df7bfdc	0.12097141
23	0xbd8a8269	-0.06763155
24	0x3e06728d	0.13129635
25	0x3d26d5ea	0.040731348
26	0xbe2b0c6d	-0.16703959
27	0x3d568d72	0.052380987
28	0xbd482bb4	-0.048869804
29	0xbe27e1ac	-0.1639468
30	0xbe313af9	-0.17307653
31	0xbdc0946f	-0.094033115
32	0xbd94922f	-0.07254445
33	0xbdb9a72b	-0.09065088
34	0x3def2db9	0.11678643
35	0xbe50821f	-0.20362137
36	0x3e087a04	0.13327795
37	0xbd6e480d	-0.05817418
38	0x3de3d41d	0.11124442
39	0x3d1476e9	0.036246214
40	0x3dddccb1	0.108300574
41	0xbd33a21a	-0.043855764
42	0x3dc86dfb	0.09786602
43	0xbc48f702	-0.0122659225
44	0xbd4e210f	-0.050324496
45	0xbd3086b0	-0.043097198
46	0x3ce54cbe	0.027990695
47	0x3e52d8e5	0.20590551
48	0x3d05591f	0.032555696
49	0xbe173824	-0.1476751
50	0xbe045e9f	-0.1292672
51	0x3dfea231	0.12433279
52	0x3e0a0900	0.13479996
53	0xbe2c745f	-0.16841267
54	0xbe0a6c99	-0.13517989
55	0x3e0b17d6	0.13583311
56	0xbdd06037	-0.101746015
57	0x3d406434	0.04697056
58	0x3e0a7fbf	0.13525294
59	0xbe10caef	-0.14139913
60	0x3e541dec	0.2071454
61	0x3c8597d1	0.016307743
62	0xbd65c2ea	-0.056094088
63	0x3c36e26b	0.011162381

encoder.2.weight f4 [128, 64, 3, 3]
0	0xbd0ab93c	-0.03386806
1	0xbccc6ee0	-0.024955213
2	0xbce36a77	-0.027760727
3	0x3c9ebc14	0.019376792
4	0x3cbed7fb	0.023296347
5	0xbc9c9a73	-0.019116616
6	0xbd620adf	-0.05518615
7	0xbc0b9ce2	-0.0085212905
8	0xbcc443ae	-0.023958053
9	0x3d1f426d	0.038881708
10	0x3c980511	0.018557103
11	0x3cace378	0.02110456
12	0x3cd9e7fc	0.026599877
13	0x3cb398e6	0.021923494
14	0x3d06c3c8	0.032901555
15	0xbd2239f0	-0.039606035
16	0xbd166031	-0.03671283
17	0x3d268a45	0.040659208
18	0x3d1d033f	0.038333174
19	0x3d07ca6b	0.033152025
20	0xbd255d26	-0.040372036
21	0x3cdc91d4	0.026925005
22	0xbcead251	-0.02866474
23	0xbcbb5126	-0.022865843
24	0xbcbe4973	-0.023228383
25	0x3cba0d16	0.022711318
26	0x3a7fef56	0.0009763142
27	0x3c8950e5	0.016762206
28	0x3cc54748	0.024081841
29	0xbbc6b9fc	-0.0060646515
30	0xbceca9a4	-0.028889485
31	0xbb1a921c	-0.0023585623
32	0xbc3bf923	-0.011472973
33	0x3c87f092	0.016594205
34	0x3c775e34	0.015098143
35	0xbba2906e	-0.004961065
36	0xbcb2044f	-0.02173057
37	0x3ca007f0	0.019535035
38	0x3d17ad01	0.037030224
39	0x3ada2014	0.001664164
40	0xbcdc6fbc	-0.026908748
41	0x3cbcddce	0.023054983
42	0x3c7e61d2	0.015526252
43	0xb9b86cfb	-0.00035176412
44	0xbcb07361	-0.021539392
45	0xbce2db30	-0.027692407
46	0xbd5022c0	-0.05081439
47	0xbd614367	-0.05499592
48	0xbd35cd3e	-0.044385187
49	0x3bbbffd6	0.005737285
50	0xbc1d8784	-0.009614829
51	0xbc1354f2	-0.0089924205
52	0xbbab3dab	-0.0052258573
53	0xbd1bf0a7	-0.0380713
54	0x3c9226a1	0.017840685
55	0xbd1a6a08	-0.037698776
56	0x3b88267c	0.0041549783
57	0xbd5a82b5	-0.05334731
58	0xbc2a47d3	-0.010393101
59	0xbd12e24a	-0.035860337
60	0x3cba6d94	0.022757329
61	0x3c7a2ed5	0.015269955
62	0x3aa124b8	0.0012294268
63	0xbd2557a2	-0.040366776
64	0xbd0b6ee2	-0.034041293
65	0x3c1be1e0	0.009514302
66	0xbc57d09f	-0.013172298
67	0xbc0b6b51	-0.008509473
68	0xbd234939	-0.039864752
69	0x3cb7f5e5	0.022456119
70	0xbba0c556	-0.004906337
71	0x3b0a7599	0.0021127223
72	0x3c9ad297	0.018899245
73	0xbd3607b1	-0.04444093
74	0xbd006c68	-0.031353384
75	0x3cbd1f23	0.023086136
76	0xbc03254c	-0.008004498
77	0xbcc81750	-0.024425179
78	0x3b8c98ec	0.0042906906
79	0x3cf63e77	0.030059082
80	0xbceb4e2b	-0.028723797
81	0x3c0bd0f0	0.008533701
82	0x3ce8388b	0.028347274
83	0x3c34794b	0.011015247
84	0xbc543526	-0.012952125
85	0xbc75e5db	-0.015008415
86	0x3cd82406	0.026384365
87	0xbc974286	-0.018464338
88	0x3ba4bc76	0.005027349
89	0xbd201aa8	-0.03908792
90	0x3d25df43	0.040496122
91	0x3cf93498	0.030420586
92	0x3d2bebe4	0.04197301
93	0xbc3fe8de	-0.011713235
94	0x3d251464	0.04030265
95	0xbcab9dfc	-0.020949356
96	0x3d0fa6a3	0.035071027
97	0xbbab792b	-0.00523295
98	0xbcc39896	-0.02387647
99	0x3ce59a5b	0.028027704
100	0x39e4ac87	0.00043616092
101	0xbc1cbf98	-0.009567164
102	0x3ccfad94	0.025351323
103	0x3cfac902	0.030613426
104	0x3cbc3cc9	0.022978203
105	0x3d01cf64	0.031691924
106	0x3cac689c	0.021045975
107	0xbca3f505	-0.020014295
108	0xbd2fb79c	-0.042899713
109	0xbd3f16da	-0.046652652
110	0xbd493bc6	-0.04912927
111	0x3b5725bf	0.0032828895
112	0xbc934c0c	-0.017980598
113	0xbd25eb3e	-0.040507548
114	0xbcd5eec0	-0.026114821
115	0xbd2affc3	-0.04174782
116	0x3c046c45	0.008082454
117	0x3cc4c09e	0.024017628
118	0xbc8998e1	-0.016796531
119	0xbcc496d5	-0.023997704
120	0xbd41b3b2	-0.04729051
121	0xbd30eed6	-0.04319652
122	0xbc61d15f	-0.013782828
123	0xbc716c32	-0.014735268
124	0xbd489ec5	-0.04897954
125	0x3be4ce44	0.0069825966
126	0xbd40b42d	-0.04704683
127	0xbca2b72e	-0.019862738
128	0xbd3b729d	-0.0457636
129	0xbcef8cb4	-0.029241897
130	0x3c934345	0.017976413
131	0xbd065782	-0.032798298
132	0x3c198610	0.009370342
133	0xbd19d75e	-0.037558906
134	0x3c28a174	0.0102924
135	0xbc6f5ca6	-0.014609491
136	0x3ca2cfed	0.019874537
137	0xbc45ae34	-0.012065459
138	0xbc140e28	-0.009036578
139	0xbc984a28	-0.018590048
140	0xbbd9fe67	-0.0066526416
141	0xbd2d6edf	-0.042342063
142	0x3c36b0b5	0.011150529
143	0xbb6c44ae	-0.0036051678
144	0x3c2d882b	0.010591547
145	0xbd160ebc	-0.036635146
146	0xbcf3a707	-0.02974273
147	0x3c96978f	0.018382816
148	0x3cda3326	0.026635718
149	0xbc14e697	-0.00908818
150	0xbd06e8e9	-0.032936964
151	0xbc05a4e6	-0.008156991
152	0xbd10ac60	-0.03532064
153	0x3c0fd4c5	0.008778756
154	0xbc140329	-0.009033957
155	0x3b9283ab	0.0044712625
156	0x3d15b3a5	0.036548276
157	0xbc168154	-0.009186108
158	0x3d01dda6	0.03170552
159	0xbd1c78d1	-0.038201157
160	0xbd11beaf	-0.03558224
161	0xbd3c84ec	-0.0460252
162	0x3c552778	0.013009898
163	0x3c40f57a	0.011777276
164	0xbbe69d3d	-0.007037787
165	0x3c56a712	0.013101356
166	0xbbaf1810	-0.0053434446
167	0x3cd77d9f	0.026305018
168	0xbd03e499	-0.03220043
169	0xbcc46786	-0.023975145
170	0x3c824d4e	0.015906002
171	0x3ae1f6eb	0.0017239725
172	0x3936bf65	0.00017428173
173	0x3caec35e	0.021333393
174	0x3cbd3e69	0.023101049
175	0x3c904fc3	0.017616158
176	0x3bb6b58f	0.0055758427
177	0x3bc6e8eb	0.0060702465
178	0xbb90d6fd	-0.00442016
179	0x3c32d07d	0.010913965
180	0x3b9c037b	0.004761157
181	0x3b6746a2	0.0035289903
182	0x3caf06ff	0.02136564
183	0xbc364bf0	-0.011126503
184	0xbc4cd96b	-0.012503008
185	0x3cb85568	0.022501662
186	0x3afeadd3	0.0019430466
187	0xbc6ea4ea	-0.014565686
188	0x3b2fe6ec	0.002684052
189	0xbc3bd818	-0.011465095
190	0xbd35ee4e	-0.04441672
191	0x3cef2c89	0.02919604
192	0x3cca5797	0.02469997
193	0x3a174951	0.0005771118
194	0x3cd62177	0.026139004
195	0xbd437051	-0.047714535
196	0xbcfb86c8	-0.030703917
197	0xbca1e8d1	-0.019764336
198	0x3c91259a	0.017718125
199	0xba064716	-0.0005122287
200	0xbbc041d7	-0.0058672237
201	0x3b84f457	0.004057448
202	0xbb94c9f4	-0.0045406763
203	0xbc2052ed	-0.009785396
204	0xbd36bb64	-0.044612303
205	0x3d046013	0.032318186
206	0xbc9b0952	-0.018925343
207	0xbd4bc59a	-0.049748994
208	0xbc92a8c3	-0.017902737
209	0xbbdaa30e	-0.0066722697
210	0x3cd16f10	0.025565654
211	0xbd41d5f6	-0.04732319
212	0xbc8011ab	-0.015633425
213	0x3c6c665f	0.014428704
214	0x3b013f19	0.0019721447
215	0x3bb1e3f8	0.0054287873
216	0x3cda9f70	0.026687354
217	0xbb53fecd	-0.0032347918
218	0x3c4b8d31	0.012423799
219	0xbcdab8ab	-0.026699385
220	0x3c5a08bc	0.0133077465
221	0x3b8001b8	0.003906455
222	0x3b91522d	0.004434845
223	0xbc33b5d3	-0.010968643
224	0x3c892c5e	0.016744789
225	0xbbac32b2	-0.005255067
226	0xbba9b4d1	-0.0051790257
227	0xbcd05fce	-0.025436308
228	0xbccaa2ba	-0.024735797
229	0xbd0e9f15	-0.03481968
230	0xbd12cb48	-0.035838395
231	0x3bb56492	0.0055356706
232	0xbab29fb0	-0.0013627913
233	0xbd3e39f1	-0.046441976
234	0xbcc3b48b	-0.0238898
235	0xbd3e3028	-0.046432644
236	0xbd59c4ea	-0.053166308
237	0x3b6219be	0.0034500207
238	0xbcab3eb5	-0.020903924
239	0x3ccc43e1	0.024934711
240	0xbd52d78e	-0.0514751
241	0x3b856543	0.004070909
242	0xbc8a3511	-0.016871007
243	0x3cb21cd2	0.021742258
244	0x3c8926ec	0.016742192
245	0x3c386f8c	0.011257064
246	0xbc9dde9a	-0.019271184
247	0x3c74dcbe	0.014945207
248	0x3c0d318c	0.00861777
249	0x3d00765b	0.031362873
250	0xbcbc5bc6	-0.02299298
251	0xbd0a6d43	-0.033795606
252	0xbc8485ea	-0.016177136
253	0x3c467560	0.012112945
254	0xbcb008f4	-0.021488644
255	0x3d014134	0.031556323

encoder.2.bias f4 [128]
0	0xbd6293d9	-0.05531678
1	0x3b9b6cf1	0.0047432114
2	0x3d70c106	0.05877783
3	0x3c92da12	0.01792625
4	0x3d0ca2d2	0.034334965
5	0x3c8bfe6d	0.017089093
6	0x39d89967	0.00041313024
7	0xbd01eda2	-0.031720765
8	0x3bfd8a9c	0.007737471
9	0xbbc5724c	-0.006025588
10	0xbd313a84	-0.043268695
11	0xbd074b4b	-0.03303079
12	0x3d538855	0.05164369
13	0xbd0bd954	-0.034142807
14	0x3da21552	0.07914223
15	0x3ac3381c	0.0014894041
16	0xbd153ebd	-0.036436785
17	0xbd45ac41	-0.048259977
18	0xbd223ce8	-0.039608866
19	0xbd83a082	-0.06427099
20	0x3c85cdee	0.016333546
21	0x3c4562a4	0.012047444
22	0x3dbe55ab	0.092936836
23	0x3e186780	0.14883232
24	0x3d689b0d	0.056788493
25	0x3d4a412c	0.04937856
26	0xbc27c1e8	-0.010239102
27	0x3cb2645c	0.02177637
28	0xbce2bcfd	-0.027678007
29	0x3d690e49	0.05689839
30	0x3bfc1402	0.007692815
31	0xbdcddf24	-0.10052326
32	0x3d663e89	0.056211982
33	0xbc441b2c	-0.011969369
34	0x3bedd678	0.0072582327
35	0x3c019d66	0.007911062
36	0xbd0cf31c	-0.034411535
37	0xbbab30e7	-0.0052243355
38	0x3cd1e022	0.02561957
39	0x3d98a1bb	0.07452723
40	0x3ccf2254	0.025284924
41	0xbc8eae9e	-0.017417248
42	0x3cf34496	0.02969579
43	0x3d61e728	0.05515209
44	0xbd000598	-0.031255335
45	0x3c1fee59	0.009761416
46	0xbbeda1d6	-0.0072519584
47	0x3c2f8afa	0.010714287
48	0x3d05f5af	0.032705005
49	0xbcb1df6b	-0.02171298
50	0x3d310fc7	0.043227937
51	0x3d23aa36	0.039957248
52	0x3b00023b	0.001953258
53	0x3ccf5552	0.025309239
54	0x3d285db3	0.041104984
55	0x3d95173a	0.07279821
56	0x3d5d7898	0.054070085
57	0xbd54a5fd	-0.05191611
58	0xbd31d73f	-0.043418165
59	0x3d3157ee	0.043296747
60	0x3c23270f	0.009958043
61	0xbd3824d9	-0.044957016
62	0x3cf270a5	0.029594729
63	0xbd00dfd9	-0.031463478
64	0xbcd90bdf	-0.026494918
65	0x3bcb6fe5	0.006208407
66	0x3c9f2f15	0.01943163
67	0x3c847105	0.016167173
68	0x3d6d3e72	0.05792088
69	0x3d927234	0.07150689
70	0x3aeee995	0.0018227572
71	0x3ce68247	0.028138293
72	0x3d847b0c	0.06468782
73	0x3d882709	0.0664807
74	0x3ce86190	0.028366834
75	0xbcfe7cc9	-0.031065362
76	0x3d9d881d	0.07691977
77	0x3d401444	0.046894327
78	0x3d9f8af0	0.07790172
79	0xbcdc3a86	-0.026883375
80	0x3d11bbb5	0.035579402
81	0x3cd28258	0.025696918
82	0xbc930dee	-0.017950978
83	0xbc3ade4e	-0.011405541
84	0x3d447a55	0.047968227
85	0xbd8b1888	-0.06791788
86	0x3d0a22f0	0.033724725
87	0xbd07b20e	-0.03312879
88	0x3d8d0e40	0.068874836
89	0xbd809dcc	-0.06280097
90	0xbd5bf1ad	-0.053697277
91	0x3d9fdd96	0.07805936
92	0x3d90da66	0.07072906
93	0xbd01b6f9	-0.031668637
94	0x3c2e6f3e	0.010646639
95	0xbc9ed41d	-0.019388253
96	0x3dc40481	0.095711716
97	0xbce4f809	-0.027950304
98	0xbcd9d91c	-0.026592784
99	0x3d8701ea	0.06592162
100	0xbca009ab	-0.01953586
101	0x3d5c390b	0.053765338
102	0x3d29d804	0.041465774
103	0xbd4e59ac	-0.050378487
104	0x3d353493	0.04423959
105	0x3d8361b2	0.06415118
106	0xbce610f1	-0.02808425
107	0x3b8901e1	0.004181132
108	0xbd2c9896	-0.042137705
109	0xbaf2f3ea	-0.0018535827
110	0xbd079dff	-0.03310966
111	0xbd1c848b	-0.03821234
112	0xbcd7ba5a	-0.026333977
113	0x3c97d9ef	0.018536536
114	0x3cbed29c	0.023293786
115	0x3d97466c	0.07386479
116	0x3cd20ebe	0.025641795
117	0xbd7ee681	-0.062231544
118	0xbcd5d330	-0.026101679
119	0x3d4a65a0	0.049413323
120	0x3cc9be49	0.024626868
121	0xbd644fdb	-0.05574022
122	0xbca70b3e	-0.020391103
123	0xbd1be0f1	-0.038056318
124	0x3d0c4b88	0.03425172
125	0x3ccc5e50	0.024947315
126	0x3d1a00cc	0.037598416
127	0xbd50f6b2	-0.051016517

decoder.0.weight f4 [64, 128, 3, 3]
0	0x3d0d66f7	0.034522023
1	0xb9fe6ca6	-0.00048527605
2	0x3ca66b11	0.020314725
3	0x3d0f0e9c	0.034926042
4	0x3ced1ce5	0.028944442
5	0x3c839750	0.016063362
6	0x3b6708f8	0.0035253149
7	0x3c3522b0	0.011055633
8	0x3b913996	0.0044319136
9	0x3c8ccd47	0.017187728
10	0x3bb6688d	0.0055666626
11	0x3c75ab49	0.014994451
12	0x3c9ffb83	0.01952911
13	0xbb623cde	-0.0034521143
14	0x3b008998	0.0019613262
15	0xbc4a82b9	-0.012360268
16	0x3afdb4da	0.0019356266
17	0xbb6d8ad8	-0.0036246087
18	0x3bb399f4	0.005480999
19	0xbce6371c	-0.02810245
20	0x3b1f0ebd	0.002427026
21	0xbcb00861	-0.02148837
22	0xbc3277ed	-0.01089285
23	0xba762bf0	-0.00093907025
24	0x3d8a2834	0.067459494
25	0x3bd097e5	0.0063657635
26	0x3b8d0a20	0.0043041855
27	0x3dc1ba6a	0.09459384
28	0x3d903fb2	0.07043399
29	0x3e04ea3b	0.12979977
30	0x3e00bff8	0.1257323
31	0x3d94d572	0.07267274
32	0x3e202476	0.15638909
33	0x3dffe0c0	0.124940395
34	0x3ddcc099	0.107789226
35	0x3e4beea2	0.1991525
36	0x3c5ca929	0.013468065
37	0x3c8f58c7	0.017498387
38	0x3c01ca92	0.007921832
39	0x3c1fe15e	0.009758322
40	0xbcec8526	-0.028872084
41	0x3b957c15	0.004561911
42	0x3db98614	0.090587765
43	0x3c3a6d54	0.011378605
44	0x3d4106bf	0.047125574
45	0x3cc8f188	0.024529234
46	0x3c6d23be	0.014473854
47	0xbcb59b83	-0.02216888
48	0x3ca8477e	0.020541903
49	0x3c912198	0.017716214
50	0x3c903a5d	0.017605955
51	0x3c978c2e	0.01849946
52	0x3caa7b98	0.020810887
53	0x3d03066f	0.031988557
54	0x3ba38840	0.0049906075
55	0xbc450bbc	-0.0120267235
56	0xbc510cda	-0.012759412
57	0x3b58d76e	0.003308739
58	0x3c657808	0.014005668
59	0x3c120c4a	0.008914063
60	0xbcb1d891	-0.021709712
61	0xbd275c31	-0.040859405
62	0xbc170e61	-0.009219737
63	0xbd909450	-0.07059538
64	0xbcbca242	-0.02302659
65	0xbc13d46e	-0.009022815
66	0xbcaa4437	-0.02078448
67	0xbbb9c62e	-0.005669377
68	0xbba86529	-0.0051390124
69	0xbdc15830	-0.094406486
70	0xbd3200c6	-0.04345777
71	0xbd615815	-0.055015642
72	0xbcb6dcc5	-0.022322068
73	0xbbb2f791	-0.005461641
74	0x3d092d08	0.03349021
75	0xbb9b6da5	-0.0047432953
76	0xbc554a93	-0.013018268
77	0x3d0edc7d	0.034878243
78	0x3b5725c8	0.0032828916
79	0x3cf2b41f	0.029626904
80	0xbc1accbc	-0.009448227
81	0x3d065fff	0.032806393
82	0xbcd31cb9	-0.025770532
83	0x3c94b4cf	0.018152623
84	0x3cc7770e	0.024348762
85	0xbd34cbb9	-0.044139598
86	0xbd0ce448	-0.034397393
87	0x3d252e9d	0.040327657
88	0x3c1a222b	0.00940756
89	0x3d1dcb00	0.038523674
90	0x3caaacd4	0.020834364
91	0xba26f338	-0.000636864
92	0xbca25f8f	-0.019820957
93	0x3c0e4781	0.00868404
94	0x3c658e37	0.014010957
95	0x3cd0c7cc	0.025485896
96	0x3c926ab5	0.017873148
97	0xbc3e5bd9	-0.011618578
98	0x3c8a136f	0.01685497
99	0xbcca8d9f	-0.024725733
100	0x3ccf8b24	0.025334902
101	0x3d0090dd	0.031388152
102	0xbd155e21	-0.03646672
103	0x3d03bf32	0.03216476
104	0x3d1e3ffe	0.038635246
105	0xbd92107f	-0.07132053
106	0xbd23cad7	-0.039988365
107	0xbcffce71	-0.031226369
108	0xbb713bfd	-0.0036809437
109	0xbcc92a51	-0.02455631
110	0x3c95a9a3	0.018269366
111	0x3b2ab7b3	0.0026049435
112	0xbce3df6e	-0.0278165
113	0xb80113f0	-3.0774565e-05
114	0x3a0f5843	0.0005468169
115	0xbca733d2	-0.020410452
116	0x3ca857df	0.020549713
117	0xbcadb992	-0.02120665
118	0x3a9b7150	0.0011859331
119	0xbc83e5a1	-0.016100707
120	0x3c257a80	0.010100007
121	0x3d2fff92	0.04296834
122	0x3d0d0871	0.03443188
123	0xbd62d3ba	-0.0553777
124	0x3c79370d	0.015210879
125	0x3ce7514a	0.028237004
126	0x3d69ece6	0.05711069
127	0x3d05e94c	0.032693192
128	0x3bde31f1	0.006780856
129	0x3d3151d6	0.043290935
130	0xb6c901c0	-5.9904705e-06
131	0x3ce15d1e	0.027510222
132	0x3d65189f	0.055931684
133	0x3bb0c500	0.005394578
134	0x3c46e11b	0.01213863
135	0x3cf06e7d	0.02934956
136	0xbc82a7ba	-0.015949119
137	0xbc808798	-0.015689656
138	0xbc8f4bb0	-0.017492145
139	0xbb32d56d	-0.0027287856
140	0xbd058962	-0.03260172
141	0x3d81847e	0.06324099
142	0x3c97dd4e	0.018538143
143	0xb95f4ad7	-0.00021294817
144	0x3b68b2d5	0.0035506983
145	0x3c2bfd13	0.010497349
146	0xbb706ae1	-0.0036684799
147	0xbcab99da	-0.020947386
148	0x3c60eb51	0.013727979
149	0xbbe19b45	-0.0068849646
150	0x3c056097	0.008140705
151	0xbb1d9a6e	-0.0024048346
152	0xbb3797b2	-0.0028014001
153	0xbd129c32	-0.03579349
154	0xbd27211c	-0.04080306
155	0xbc503833	-0.012708711
156	0xbcdde9c3	-0.027089005
157	0xbc780261	-0.015137286
158	0x3be28710	0.0069130734
159	0x3b65bb6e	0.0035054344
160	0x3b4688e7	0.0030294002
161	0xba636929	-0.0008675033
162	0x3b8f2964	0.004368948
163	0xbcba6266	-0.022751998
164	0xbc2dd504	-0.010609869
165	0xbcbf0427	-0.02331741
166	0xbc204820	-0.009782821
167	0xbc352067	-0.011055089
168	0xbc3863d0	-0.011254266
169	0x3cac8e41	0.021063926
170	0x3d2657db	0.04061113
171	0x3d507022	0.05088819
172	0x3d509442	0.05092264
173	0x3d18fc76	0.03735014
174	0x3d087a56	0.033319794
175	0x3c9df27f	0.01928067
176	0x3c8c5505	0.017130384
177	0x3d622422	0.05521024
178	0x3c82a9cc	0.015950106
179	0x3d077a8f	0.033075865
180	0x3d7e1cb7	0.062039103
181	0x3d8bf1eb	0.068332516
182	0x3c541115	0.012943526
183	0x3c9abe2c	0.01888951
184	0x3c98e52b	0.018663963
185	0x3d391492	0.045185633
186	0x3ded6afd	0.11592672
187	0x3d59b443	0.053150427
188	0x3d8c61af	0.06854569
189	0x3d158e31	0.036512557
190	0x3d611b69	0.05495778
191	0x3cbeced4	0.023291983
192	0x3d0f3846	0.034965776
193	0x3cc5c2b7	0.024140699
194	0x3b1989f1	0.0023428167
195	0x3b40cb5b	0.0029418084
196	0x3c0376d2	0.008023934
197	0x3cc43573	0.023951268
198	0x3d56e4d7	0.052464332
199	0x3ca134ce	0.0196785
200	0x3cd5f53b	0.026117912
201	0x3ca70a42	0.020390633
202	0xbce2df0b	-0.027694246
203	0x3be24aba	0.0069058808
204	0x3d436e72	0.04771275
205	0x3d1412ba	0.03615067
206	0x3bcfc894	0.0063410494
207	0x3cec39f5	0.02883623
208	0x3b94b00c	0.004537588
209	0x3c8bd679	0.017070042
210	0x3b4c9b5b	0.0031220529
211	0xbccd8a30	-0.025090307
212	0x3cd981ff	0.026551245
213	0x3d53b644	0.051687494
214	0x3d1f02f8	0.03882119
215	0x3ca412c6	0.020028483
216	0x396d16ca	0.00022610571
217	0x3b67ebde	0.003538839
218	0xbcc4ef87	-0.024039997
219	0x3c8fcd71	0.017554017
220	0xbb95eb70	-0.0045751855
221	0x3c554eca	0.013019273
222	0x3daa4a5d	0.08314965
223	0x3d299139	0.04139826
224	0x3be9ed0f	0.0071388553
225	0x3d541505	0.05177786
226	0xbb54aae3	-0.003245049
227	0xbcca423b	-0.024689784
228	0x3d314f1f	0.043288346
229	0xbba13506	-0.004919651
230	0x3b194f05	0.0023393047
231	0x3dc202ef	0.09473216
232	0x3b1bf7c8	0.0023798812
233	0x3d125185	0.035722274
234	0xbdb79d14	-0.08965507
235	0xbd9d2c7a	-0.07674499
236	0xbd3e22d0	-0.04641992
237	0xbd1a39e1	-0.037652854
238	0xbd794e88	-0.06086591
239	0xbd157791	-0.03649098
240	0xbddeceb0	-0.10879266
241	0xbdcf9ad3	-0.10136952
242	0xbc01cde3	-0.007922622
243	0x3bd83679	0.0065982905
244	0xbc4bf605	-0.012448792
245	0xbb053bc7	-0.002032982
246	0xbc689fb4	-0.014198232
247	0xbcee4277	-0.029084427
248	0x3ca577cd	0.020198727
249	0xbce8aa9b	-0.028401664
250	0x3c5d2e53	0.013499814
251	0xbc38cf7c	-0.011279937
252	0x3c22879d	0.009920028
253	0x3d359de5	0.044340033
254	0x3c8b8d63	0.017035192
255	0x3d367a50	0.04455024

decoder.0.bias f4 [64]
0	0x3d6a3fff	0.057189938
1	0x3e1bcbac	0.15214413
2	0xbcaa2ab5	-0.020772317
3	0xbd510cf1	-0.051037733
4	0x3dcc6634	0.09980431
5	0xbcd1f30c	-0.02562859
6	0x3d36bdb8	0.044614524
7	0x3cede633	0.029040432
8	0x3cb41940	0.021984696
9	0xbcc791cb	-0.024361512
10	0x3d338390	0.04382664
11	0x3cf1b608	0.029505745
12	0x3d27ec72	0.040996976
13	0x3c6a6fdd	0.014308897
14	0x3d52fede	0.05151259
15	0x3d491b90	0.04909855
16	0x3c9eb1a2	0.019371811
17	0x3b6756ad	0.0035299466
18	0xbc39708e	-0.011318339
19	0x3d4dc1fd	0.05023383
20	0x3d9b1b54	0.07573572
21	0xbc12a6a9	-0.008950868
22	0x3d8ba21d	0.0681803
23	0x3d6ab42e	0.05730074
24	0xbd1a5555	-0.037679035
25	0x3d92b6ce	0.071637735
26	0x3cddff10	0.027099162
27	0x3d9534ae	0.072854385
28	0xbbf7642d	-0.0075497837
29	0x3d1fe72c	0.039038822
30	0x3d43c3b1	0.047794048
31	0x3d1d5061	0.038406733
32	0x3d12878e	0.035773806
33	0x3d079635	0.033102233
34	0xbcb60bb3	-0.022222375
35	0x3d334b9f	0.04377329
36	0x3c5f63a7	0.013634599
37	0x3dd3742f	0.10324895
38	0xbd5d6776	-0.054053746
39	0x3d60d0a9	0.054886494
40	0x3db8b8d8	0.09019631
41	0x3d608d30	0.054822147
42	0xbd042cf6	-0.03226944
43	0x3c132336	0.008980563
44	0x3d94b76c	0.072615474
45	0xbba9ee28	-0.005185861
46	0x3d31cf38	0.04341051
47	0x3d0e8d21	0.03480256
48	0x3d48388a	0.048882045
49	0x3d97f44f	0.07419645
50	0x3ca64ccb	0.02030029
51	0x3d204dce	0.0391367
52	0x3d3d7ee7	0.0462636
53	0x3cce3a13	0.025174176
54	0x3c5bf65c	0.013425436
55	0x3d322587	0.04349282
56	0x3d2883a8	0.041141182
57	0xbacc1fe3	-0.0015573468
58	0x3d35c033	0.04437275
59	0x3d47febc	0.048826918
60	0x3d5bf4d8	0.053700298
61	0x3c3064bb	0.0107662035
62	0x3d7c9160	0.061662078
63	0x3de45632	0.11149253

decoder.2.weight f4 [1, 64, 3, 3]
0	0x3d442fa9	0.047897015
1	0xbc902020	-0.017593443
2	0x3d38880e	0.045051627
3	0x3c88cb7e	0.016698595
4	0xbd6aa5d5	-0.057287056
5	0xbc7ebefe	-0.015548466
6	0x3dc8abdf	0.09798407
7	0x3d1459db	0.036218505
8	0x3bf9d4d7	0.0076242494
9	0xbc0c17a5	-0.008550559
10	0xbba9ffba	-0.0051879557
11	0xbe1f8f73	-0.15582065
12	0x3dc17560	0.09446216
13	0x3d26cbe9	0.040721808
14	0xbda42d5d	-0.08016465
15	0x3e186ef8	0.14886081
16	0x3c55b6ca	0.013044069
17	0xbd817846	-0.063217685
18	0xbc4ae204	-0.012382988
19	0x3d292142	0.041291483
20	0xbcbef6c6	-0.02331103
21	0xbcd90c5a	-0.026495147
22	0xbbe70734	-0.007050419
23	0x3ce95a42	0.028485421
24	0x3c6a083b	0.014284189
25	0x3d119cf0	0.035550058
26	0xbc9cc2be	-0.019135829
27	0xbc952f5a	-0.018211056
28	0x3d43904f	0.047745045
29	0xbd170300	-0.036868095
30	0xbd0ab909	-0.03386787
31	0x3d67ff58	0.05664
32	0x3c35041e	0.011048345
33	0xbca0509d	-0.01956969
34	0x3b0c200c	0.0021381406
35	0xbd342049	-0.043976102
36	0xbde2c54d	-0.110727884
37	0xbd8ab1ad	-0.0677217
38	0xbd15c3fb	-0.036563855
39	0xbd2d111d	-0.04225265
40	0xbce41608	-0.027842537
41	0x3af6426f	0.0018788109
42	0xbd8c384b	-0.068466745
43	0xbd6d8b35	-0.057994086
44	0xbdbc755e	-0.092020735
45	0x3ce49f57	0.02790801
46	0xbc8aa179	-0.0169227
47	0x3d374818	0.04474649
48	0xbd17b402	-0.037036903
49	0xbcd94d3b	-0.026526084
50	0xbcc263af	-0.023729173
51	0xbd3d8805	-0.046272296
52	0x3d051d47	0.032498624
53	0xbc995251	-0.01871601
54	0x3d8d17ce	0.06889306
55	0x3d67a495	0.056553442
56	0x3df2ee1b	0.11861821
57	0xbcd9f143	-0.0266043
58	0xbd0edc82	-0.03487826
59	0x3d1c4e2e	0.038160495
60	0xbd0387f5	-0.03211208
61	0xbcc76f13	-0.024344957
62	0x3d4d4f88	0.050124675
63	0x3ca73fdb	0.02041619
64	0x3d5147b8	0.051093787
65	0x3da3bd5a	0.079951
66	0x3c0a89f2	0.00845574
67	0xbd00df54	-0.031462982
68	0x3c479acd	0.0121829035
69	0x3d74a54b	0.05972795
70	0x3aaf93ba	0.0013395466
71	0x3d99e7f8	0.07514948
72	0x3c3033d7	0.010754547
73	0x3d01c139	0.031678412
74	0x3ddc133d	0.10745857
75	0xbc7889d4	-0.01516958
76	0xbc2063b3	-0.009789395
77	0x39ca1168	0.0003854141
78	0x3a16cce7	0.0005752579
79	0x3c9ce36f	0.019151418
80	0x3dba6678	0.091015756
81	0x3e4d5246	0.20050916
82	0x3db5314f	0.088472955
83	0x3e040bd4	0.12895137
84	0x3d99c61c	0.075084895
85	0x3c50f42d	0.012753529
86	0x3db85053	0.08999696
87	0x3db0b359	0.08627958
88	0x3de27d1a	0.110590175
89	0x3e1842b7	0.148692
90	0x3d02b400	0.031909943
91	0x3d1bb029	0.038009796
92	0x3d19047f	0.037357803
93	0x3ca987a3	0.02069456
94	0x3cad5b6f	0.021161763
95	0x3aeb1017	0.0017933872
96	0x3db13d1e	0.08654235
97	0xbae3d7a0	-0.0017382987
98	0xbb89fcac	-0.004211029
99	0xbb745f5b	-0.0037288282
100	0xbd23367c	-0.039846882
101	0xbd9a3230	-0.07529104
102	0x3c583280	0.013195634
103	0x3d264d1d	0.040600885
104	0x3d2981ce	0.041383557
105	0xbd929b2e	-0.071585044
106	0xbcb6bc81	-0.022306683
107	0xbcb58351	-0.022157343
108	0x3de056fb	0.1095409
109	0x3d774bd2	0.060375042
110	0x3d82f42e	0.0639423
111	0xbcc7a5a5	-0.024370978
112	0xbd64d0ac	-0.055863068
113	0x3bda017c	0.006653009
114	0x3c88f16c	0.016716681
115	0xbc647bcd	-0.013945532
116	0x3bfd9fa6	0.007739979
117	0x3cf4587b	0.029827347
118	0x3d3e6228	0.046480328
119	0x3d886749	0.06660325
120	0xbc3367af	-0.010950013
121	0x3d167faa	0.036742844
122	0x3d83d54b	0.06437167
123	0x3d5c1f34	0.053740695
124	0x3c4978ef	0.012296899
125	0x3def9563	0.11698415
126	0xbc996f97	-0.018729968
127	0x3c0436e6	0.008069729
128	0x3c26e99d	0.010187534
129	0x3d343d1f	0.044003602
130	0x3cbd4212	0.023102794
131	0x3d12f239	0.035875533
132	0x3d5a1b05	0.053248424
133	0x3d8ac8e7	0.067766
134	0x3da52d90	0.08065331
135	0x3cca0ca2	0.024664227
136	0xbc612a49	-0.013742992
137	0xbda7eefc	-0.081998795
138	0x3ce47433	0.02788744
139	0x3d49e36d	0.049289156
140	0xbc5857d0	-0.01320453
141	0xbd8e71cf	-0.06955301
142	0x3b7260f9	0.003698407
143	0xbdaad193	-0.08340754
144	0x3d5601e9	0.052247915
145	0xbca61267	-0.020272447
146	0xbc9569e7	-0.018238975
147	0x3ae4e588	0.0017463425
148	0x3c69402f	0.014236494
149	0x3d1f4777	0.038886514
150	0x3d03eb5d	0.03220688
151	0x3d025185	0.031816024
152	0x3d744a45	0.05964114
153	0xbd0d6d14	-0.034527853
154	0x3cca6be4	0.02470965
155	0x3d9c64d0	0.07636416
156	0x3c83f177	0.01610635
157	0x3d0ecea6	0.034865044
158	0x3c7a481f	0.015275984
159	0x3c1e15f9	0.009648793
160	0x3cc76a45	0.024342665
161	0xbb986712	-0.004650959
162	0x3cb1f78a	0.021724481
163	0xbcb5369a	-0.022120763
164	0x3cd2a7bb	0.025714746
165	0xbc41d2d6	-0.011830052
166	0xbb16f1da	-0.0023032338
167	0xbc0c98cb	-0.008581351
168	0x3cc605b9	0.02417265
169	0xbd3e9e67	-0.046537783
170	0x3be768a9	0.007062037
171	0xbd5ee3b9	-0.054416392
172	0xbc9d3620	-0.019190848
173	0xbded16b2	-0.115765944
174	0xbd2973eb	-0.041370314
175	0x3b4a756b	0.003089274
176	0xbd8c3fe7	-0.06848126
177	0xbd271180	-0.040788174
178	0xbc6bed71	-0.014399872
179	0xbdede75d	-0.11616395
180	0xbdc305bb	-0.095225774
181	0xbc3f3887	-0.011671192
182	0xbdac314d	-0.08407841
183	0xbcab7f52	-0.020934734
184	0x3bacdf43	0.0052756383
185	0xbd799add	-0.060938705
186	0xbce85cf2	-0.028364632
187	0xbd49c634	-0.049261287
188	0xbdc7c173	-0.097536944
189	0x3d345f2c	0.044036075
190	0xbc068249	-0.008209773
191	0xbc2f7a2d	-0.010710281
192	0x3cf5685c	0.029956989
193	0xbc18d1cc	-0.009327363
194	0x3d01b2d2	0.031664677
195	0xbca745a3	-0.020418948
196	0xbc884f6f	-0.01663944
197	0xbc6c850d	-0.014436019
198	0x3d820c20	0.06349969
199	0x3d27cd06	0.04096701
200	0x3d852f01	0.06503106
201	0xbbc5752c	-0.006025931
202	0x3c909e91	0.017653735
203	0xb89da064	-7.5162185e-05
204	0x3d58dba2	0.052943833
205	0x3d61a270	0.055086553
206	0x3d7a282d	0.06107347
207	0xbdc7ab25	-0.0974944
208	0xbc8bebdf	-0.017080246
209	0x3d6eab89	0.058269057
210	0xbd81ecbf	-0.06343984
211	0xbc0cad10	-0.008586183
212	0x3d571e9b	0.052519422
213	0xbd661d7c	-0.056180462
214	0x3cc90864	0.024540134
215	0x3de245fb	0.11048504
216	0x3d4f849c	0.050663576
217	0xbd5025e1	-0.050817374
218	0xbe0e8b50	-0.13920331
219	0xbb5341b9	-0.0032235219
220	0xbd9ab533	-0.07554092
221	0xbe246f8b	-0.16058175
222	0xbc69a94a	-0.014261553
223	0xbd9b82a9	-0.07593281
224	0xbe1701ab	-0.1474673
225	0x3d22240e	0.039585166
226	0xbd32bc42	-0.043636568
227	0x3c2e582b	0.010641138
228	0xbad3a954	-0.0016148486
229	0xbd7d1142	-0.061784036
230	0xbd2646f5	-0.040595014
231	0x3e145ac1	0.14487745
232	0x3d9cb0c6	0.07650904
233	0x3d52de20	0.051481366
234	0x3ae2ba67	0.0017297984
235	0xbc94ec53	-0.018179094
236	0x3d9f3e59	0.07775564
237	0x3d6a2cf6	0.057171784
238	0x3cc5905f	0.024116693
239	0x3cd61794	0.02613429
240	0x3cebbed8	0.028777525
241	0x3da28e35	0.0793728
242	0x3dcffab7	0.10155242
243	0xbd8ad2f1	-0.06778515
244	0xbd6e225a	-0.05813823
245	0xbd50df9f	-0.05099451
246	0xbcf74283	-0.030183082
247	0xbc96ad0f	-0.018393068
248	0xbd57385c	-0.052543983
249	0xbc818f61	-0.015815439
250	0xbc2cf950	-0.010557488
251	0xbda165d3	-0.078807496
252	0xbc10ca5b	-0.008837308
253	0x3c8b9194	0.01703719
254	0xbcc00eb1	-0.023444505
255	0xbd02b441	-0.031910185
